gain_calib-LISTA/generalization/Results/net_JT_cal_struc.pth (torch, 56841 bytes, 30 tensors)

conv.0.kernels.0.weight f4 [4, 1, 1, 1]
000000 70 e5 98 3e 4b 71 ec 3c 6a d7 15 3f 88 8f fd 3e
       0.29862547 0.028862616 0.5853182 0.49523568

conv.0.kernels.0.bias f4 [4]
000000 a7 14 26 bb b2 10 ae 3e c3 cb a9 3d 38 d7 3f 3e
       -0.00253419 0.33997113 0.082908176 0.18734443

conv.0.kernels.1.weight f4 [4, 1, 3, 3]
000000 21 cf 6d 3e 05 5e c9 bd 4b c3 f8 be 56 0c 95 be
       0.23223545 -0.09832386 -0.48586497 -0.29110974
000010 20 f4 e1 3e 7a 26 bb 3e 46 7d 46 be 78 68 ea 3d
       0.44131565 0.36552793 -0.19383726 0.11445707
000020 ae 86 85 3e 31 e0 8a 3b 11 94 e3 be ae 4a 91 be
       0.26079315 0.0042381515 -0.44448903 -0.2837729
000030 bf 4e b6 be 8f f6 2b be 6e 18 80 3e 01 67 4d 3d
       -0.35606954 -0.16793273 0.25018638 0.05014706
000040 aa c2 b5 be c9 55 48 3e c6 83 98 3e f0 4c 14 be
       -0.3550008 0.19563974 0.29788035 -0.14482474
000050 31 90 ab bd 0c 00 f8 bd 2f ea 5c 3e 5c 1f e9 be
       -0.08377112 -0.12109384 0.21573709 -0.45531738
000060 d6 a2 2e be 8a 38 f5 3e 3a c9 02 3f ec c8 78 bb
       -0.17054304 0.47894698 0.510883 -0.0037961556
000070 66 59 96 be b5 b0 96 3e cf cf 66 3d a3 67 08 3e
       -0.2936508 0.29431692 0.056350525 0.13320784
000080 04 9f 1b be 4b 45 02 3e 44 bb 9a 3e cc e3 3b be
       -0.15197378 0.12721746 0.30220997 -0.18348616

conv.0.kernels.1.bias f4 [4]
000000 a7 14 26 bb b2 10 ae 3e c3 cb a9 3d 38 d7 3f 3e
       -0.00253419 0.33997113 0.082908176 0.18734443

conv.0.kernels.2.weight f4 [4, 1, 5, 5]
000000 ea 7d 9e be 1b 60 90 3d 0a cf ac 3e 36 0d 6b be
       -0.3095544 0.07049581 0.33751708 -0.22954258
000010 41 6e c5 be 4e df 0d bf 5e df 7e 3d 81 c0 86 3e
       -0.3856068 -0.5541886 0.06222474 0.26318744
000020 6c b9 b3 3e 10 66 ba 3e 3a c3 d8 bd 6f bf 82 bd
       0.35102403 0.36405993 -0.105841115 -0.06384169
000030 96 09 4c 3d 34 5b 2c bd 9f 51 5b 3d 2c 41 70 be
       0.04981383 -0.042079166 0.053544637 -0.23462361
000040 48 dd 1c 3e 08 70 5b be e7 3c 83 3d 04 d4 a2 3e
       0.15318787 -0.21429455 0.064081006 0.3180238
000050 c0 51 f3 3b 81 9f a3 be 4c 91 2c bf 36 a8 f7 3c
       0.007425517 -0.3195763 -0.67409205 0.030231576
000060 b6 ac a1 3e 24 2d f8 3e e8 67 c2 3d 35 4c a2 bd
       0.3157708 0.4847194 0.09492475 -0.079246916
000070 72 4f 0f be ca aa c1 3e e2 10 3c 3e 60 3a da 3c
       -0.1399515 0.37825614 0.18365815 0.026639163
000080 7f 4b 19 bf ce 6c 84 be e8 2d 7b be 38 28 5b 3e
       -0.5988082 -0.2586426 -0.2452923 0.21402061
000090 ce c6 e6 bd a1 fa 02 3e df 15 11 bd 62 9e 4d be
       -0.11268388 0.1279092 -0.03542125 -0.2007995
0000a0 b4 d8 d4 3e 2b 0f 66 3e d0 5b 8c 3d 0b 04 f0 bd
       0.4157158 0.22466724 0.06853449 -0.11719521
0000b0 0c 3a 9a bd 52 20 a7 3e 8d 57 50 3f 25 db 8c bd
       -0.07530603 0.32641846 0.8138359 -0.06877736
0000c0 f4 79 8b be 47 df 55 3f 65 d1 1f be 1d 73 df 3e
       -0.2724148 0.8354382 -0.15607221 0.43642512
0000d0 dc 3e 0e 3e 55 ed 94 be 1a 2d 8e be 5d 15 19 bd
       0.13891166 -0.2908732 -0.27768785 -0.03737389
0000e0 7a 96 cc 3d 0c 6c d5 3d 90 fe b3 bd 3c 98 1f bf
       0.099896386 0.10420999 -0.08788788 -0.62341666
0000f0 f9 18 91 be 3f 07 d4 3d 88 ba 05 be 27 51 39 be
       -0.28339365 0.103529446 -0.13059437 -0.18097363
000100 e9 61 7c 3e 0c 3d 85 3e 2c 03 7f bd 5c 9a fe bd
       0.24646725 0.26023138 -0.062258884 -0.124317855
000110 9d d6 18 3e cd c8 9b 3e 41 a8 0a bf 3f 51 52 3e
       0.14925618 0.30426636 -0.54162985 0.20538805
000120 fe 36 f0 3d 9b 68 9f be 44 15 9f bd da cc 19 3f
       0.11729239 -0.31134495 -0.07767728 0.60078204
000130 9c 45 39 be c2 16 96 3d 42 4b db be 66 07 b6 3e
       -0.1809296 0.073285595 -0.42830855 0.3555252
000140 b3 6e 9f be ce 0c c5 bd e1 3a 95 be de 44 33 3e
       -0.31139144 -0.09621583 -0.29146484 0.1750674
000150 4d b8 9a be 15 e6 b6 be 96 57 95 3d 74 c2 aa 3d
       -0.30218735 -0.35722414 0.07292096 0.0833787
000160 c4 8e 99 be 0d 72 9a 3d 55 17 21 bf 7b 7e 72 3c
       -0.29991734 0.07541285 -0.62926227 0.014800663
000170 1f e2 92 3e e0 f2 fc bd 29 a5 e6 3d b5 28 86 3f
       0.28688142 -0.12351012 0.112619705 1.0481173
000180 3b de 16 bf 1c ce c8 be 76 05 23 3e ee 47 25 3e
       -0.58932847 -0.3921975 0.15920052 0.1614072

conv.0.kernels.2.bias f4 [4]
000000 a7 14 26 bb b2 10 ae 3e c3 cb a9 3d 38 d7 3f 3e
       -0.00253419 0.33997113 0.082908176 0.18734443

conv.0.kernels.3.weight f4 [4, 1, 7, 7]
000000 05 67 62 be da 1e 80 be cd f4 de 3d 52 5e 18 3e
       -0.22109611 -0.25023538 0.10886536 0.1487973
000010 75 0d 00 bd 09 a2 33 3e 6d 7f 19 3e ff 12 02 bf
       -0.031262834 0.1754228 0.14990015 -0.50810236
000020 93 56 1f be ee 37 cd bd 77 be a9 3d 40 d1 62 be
       -0.15560369 -0.10020433 0.082882814 -0.22150135
000030 14 dd be be ed e6 11 3f 68 5b 43 be aa f5 ba be
       -0.37278044 0.5699299 -0.19077837 -0.36515552
000040 73 34 19 3e bd 85 fb 3d 1a af 45 3e d1 96 c3 3e
       0.14961414 0.12281368 0.19305077 0.38201
000050 23 79 d5 3e 7a 56 d5 bd 84 fa 54 3e 5a 1a 4a 3e
       0.41693982 -0.10416885 0.20798689 0.19736615
000060 48 1c ca bc 6c e5 63 be 3a ca 85 bc da 11 17 3c
       -0.024671689 -0.22255486 -0.01633178 0.009220565
000070 7f 26 a9 be e5 36 ac be 95 e3 12 3e 97 0e b9 3d
       -0.33037183 -0.3363563 0.14344628 0.09035986
000080 59 fc 67 bd 85 e5 50 3e 52 4d fa be 82 2d 46 3b
       -0.05663714 0.20400055 -0.48887116 0.0030239527
000090 9c ca 47 3d 29 c9 86 be 2a bc ee be 36 9a 8a 3d
       0.048777208 -0.26325348 -0.46627933 0.06767695
0000a0 02 94 08 3f 45 52 08 c0 d0 91 98 be 2f 81 2d 3f
       0.5335084 -2.1300213 -0.29798746 0.67775244
0000b0 cf 59 bc 3d 4e 9a 3d be 31 51 9a be e7 a3 39 bf
       0.09196817 -0.18515894 -0.3014007 -0.7251572
0000c0 07 72 34 3f af d2 1d bf d9 0b 70 3e 60 a7 21 3e
       0.7048649 -0.616496 0.2344202 0.15786505
0000d0 8d 10 87 3e db 0e eb be b5 ff 78 be 40 96 3d bf
       0.26379815 -0.4590977 -0.24316294 -0.7405739
0000e0 db a1 cf 3e b6 d3 02 3f c7 e9 1c 3e 09 e5 9b 3c
       0.40553173 0.51104295 0.15323554 0.01903011
0000f0 8f d3 8c 3d b1 3c 9f 3e 1c 65 42 bf 9f cd 6f 3e
       0.06876289 0.3110099 -0.7593553 0.23418282
000100 14 63 51 3c 82 87 1d 3d 26 43 d3 be 4e 1d ca be
       0.01277997 0.03845931 -0.41262168 -0.39475483
000110 06 10 e2 bd 61 2c 00 bf 00 63 93 bd 08 c0 22 be
       -0.110382125 -0.50067717 -0.07196617 -0.15893567
000120 28 da 05 be e9 ec 68 bd d6 d8 40 bd d3 86 46 be
       -0.13071501 -0.05686656 -0.04708179 -0.19387369
000130 73 e8 32 be 59 ad 4d bb cb 49 a2 3e 1c 9f 9c bd
       -0.17471485 -0.003138384 0.31696925 -0.07647535
000140 01 65 cd bd 82 09 74 3e 61 cd 04 be d9 db b8 3d
       -0.100290306 0.23831752 -0.12968971 0.090263076
000150 5b 5d 3f 3e bc 62 3a 3e 64 45 30 3e fb 5f d7 3b
       0.18687956 0.18201727 0.1721397 0.006572721
000160 84 9f 39 be 00 35 68 3f 45 9a eb be c2 08 26 3e
       -0.18127257 0.9070587 -0.46016136 0.16214278
000170 c0 c8 03 3d c1 88 32 bd 2b 0d fe 3c 60 68 fb 3e
       0.032173872 -0.04358745 0.031012138 0.4910307
000180 01 97 f9 be c5 c9 44 bf 2f a5 43 bc eb f6 9a 3e
       -0.4874802 -0.76870376 -0.011941238 0.30266508
000190 a9 87 59 be e7 9c e4 be 58 81 ff 3d 19 86 69 be
       -0.21243156 -0.44650957 0.12475842 -0.2280506
0001a0 89 5a 18 3f 13 b9 31 3d a3 48 20 be 07 b5 6f 3e
       0.59513146 0.04338939 -0.15652709 0.234089
0001b0 85 0d c1 3e 67 71 89 be 1d fb a0 be a2 a4 f3 be
       0.37705627 -0.26844332 -0.31441584 -0.47586542
0001c0 99 eb 8b be 01 d4 96 3d d7 63 f3 3c 8f 8b a9 3e
       -0.27328184 0.07364655 0.029710693 0.33114287
0001d0 a4 8a 19 3b 33 82 65 be 8e b4 cc 3e 1e 31 83 3e
       0.0023428584 -0.22412948 0.39981502 0.2562341
0001e0 95 ff 5b be c9 52 83 3c e7 92 38 3c 20 92 4a bd
       -0.21484216 0.016030686 0.011265493 -0.049455762
0001f0 13 2f 84 3e 48 c3 e2 bd f1 60 74 bf 5c 8c f8 3e
       0.25817165 -0.11072403 -0.9546042 0.48544586
000200 f4 97 36 bd e3 ab 40 be fe cb cb bc 28 c8 2a 3c
       -0.044578508 -0.1881557 -0.024877544 0.0104236975
000210 9b e0 38 3e c4 66 15 bd 77 5c fe be a3 b3 4b bd
       0.1805443 -0.036474958 -0.4967992 -0.04973186
000220 d1 81 3f 3e 13 40 74 be 7a 9d 31 bd dc 56 26 be
       0.18701865 -0.23852567 -0.043363072 -0.16244072
000230 06 06 2e bf 8a 4c da 3e 9a 19 28 bf 0e 63 8e bf
       -0.6797794 0.4263652 -0.65664065 -1.1123979
000240 85 04 5d bf 52 58 18 be 02 84 d0 3e 11 6c c6 3d
       -0.8633502 -0.14877442 0.40725714 0.09688581
000250 5a f7 6d be eb a3 ae bd ff b5 1d bf db a6 f6 3e
       -0.23238888 -0.085273586 -0.6160583 0.48174176
000260 39 41 bd 3d bf 28 a1 3e 21 9f 8a 3e ac 7c 0f 3f
       0.09240956 0.314764 0.2707453 0.5604961
000270 68 22 e3 bd 75 a1 37 3e 0d b1 96 be 8d 6a 49 3e
       -0.11090547 0.17932685 -0.29431954 0.19669552
000280 f2 08 ae be 32 f7 c9 bd 04 eb 7a be 69 89 01 3d
       -0.339912 -0.09861602 -0.24503714 0.031625185
000290 f5 6b fb bd e7 b8 08 3f ba 5d 8a be c0 45 bc 3e
       -0.122764505 0.5340714 -0.27024633 0.36771965
0002a0 24 bb c7 3d 23 93 ce be 6c 49 16 3e b2 9d 1b 3e
       0.09752491 -0.4034663 0.14676446 0.15196875
0002b0 cd cd 0f be 56 7c 32 bd b4 a7 e7 bd 2d f0 76 bf
       -0.1404335 -0.043575607 -0.11311284 -0.9646023
0002c0 ee cb 33 bf f2 85 32 3e ce 46 cf 3c ad ad 97 be
       -0.70233047 0.17433909 0.025302317 -0.29624692
0002d0 b3 01 21 3e bc f9 20 be 1e 3f 30 3f 6f de 2f 3f
       0.15723304 -0.15720266 0.6884631 0.6869878
0002e0 6d 7d 15 bf 72 9a 62 be f9 a3 33 3e ec eb 88 3e
       -0.5839451 -0.22129229 0.1754302 0.26742494
0002f0 63 e5 a5 bf 04 0c 11 bf 27 60 6f 3c ee e6 e1 be
       -1.2960628 -0.5665896 0.014610327 -0.44121498
000300 93 f3 d3 be da f3 b4 be f0 19 9b 3e ab 59 a4 3c
       -0.4139677 -0.35342294 0.30293226 0.020062288

conv.0.kernels.3.bias f4 [4]
000000 a7 14 26 bb b2 10 ae 3e c3 cb a9 3d 38 d7 3f 3e
       -0.00253419 0.33997113 0.082908176 0.18734443

conv.0.kernels.4.weight f4 [4, 1, 9, 9]
000000 cd ca c7 3e e2 bb 3d 3e 71 cc 82 be 7a 9d 9e be
       0.39021912 0.18528703 -0.255466 -0.3097952
000010 29 1b ce be 48 2e ce bd 51 2c 36 be bb fd 81 bb
       -0.40255097 -0.10067421 -0.17790343 -0.0039670146
000020 da aa 3b 3f 7f 5d a2 3d 10 29 a5 be cd 5a c8 be
       0.73307574 0.07927989 -0.3225789 -0.39131775
000030 bf e4 41 3e 1c b3 7b 3d 9f 5a 43 be 9b 72 a9 3d
       0.18934916 0.06145011 -0.19077538 0.082738124
000040 32 b8 fc 3d d7 c6 1b 3e 2a 57 41 be 7f 96 cf be
       0.1233982 0.1521257 -0.18880907 -0.40544507
000050 0a 03 68 be bf cd bb 3d ce 59 f9 3e c3 27 51 be
       -0.2265741 0.09170102 0.48701328 -0.20425324
000060 b2 20 a8 be 96 9a 5a 3e c3 8b bd 3d 98 e3 39 bf
       -0.32837445 0.21348032 0.09255173 -0.72612906
000070 c1 06 29 be 29 4d 0b bf e7 18 d1 3d 81 6d 82 3e
       -0.16506483 -0.5441461 0.10209828 0.2547417
000080 06 e1 c2 3d 3f 5c b3 3e 1d 26 d6 3e 07 eb 1f 3f
       0.09515576 0.35031316 0.41825953 0.62468
000090 17 86 1b 3e 38 11 08 be 9d b3 36 3d b0 c1 96 3c
       0.1518787 -0.13287818 0.044604886 0.018402904
0000a0 56 15 d3 3c 53 6b f9 bd 07 86 cf 3d df 04 2c bd
       0.02576701 -0.121786736 0.101329856 -0.041996833
0000b0 d0 ca 13 3e 87 2b 7b bf f4 0e 88 be 3e da 63 be
       0.14432836 -0.9811329 -0.26573908 -0.22251222
0000c0 56 dd 86 3e 08 9f 28 3e 63 6e bc bb d2 ef 88 3e
       0.2634074 0.16466916 -0.005750464 0.26745468
0000d0 61 7c bb be 2e d1 06 bf 2a 23 48 be a0 64 b1 bd
       -0.3661833 -0.5266293 -0.19544664 -0.08661771
0000e0 aa 7c 8c bc c0 75 d1 be ec 69 19 bf 5a f9 e5 bc
       -0.017149288 -0.4091015 -0.5992725 -0.028073002
0000f0 62 f3 ea 3e b4 e7 12 c0 7f f8 46 bf ea 65 cb be
       0.4588881 -2.295392 -0.77722925 -0.39726192
000100 95 b5 33 bd 5d 4f 25 3f 11 71 78 be 44 27 23 be
       -0.043874342 0.64574224 -0.24261881 -0.15932947
000110 93 cd dc be f0 60 c4 be 58 d6 1b 3f e6 88 e5 be
       -0.4312559 -0.38355207 0.6087394 -0.44831008
000120 95 9c 8c 3f 3c b1 02 bf 84 c7 12 c0 ea a1 f9 bd
       1.0985285 -0.5105169 -2.2934275 -0.12189086
000130 29 e5 c6 be 66 61 14 bf f0 9a c3 be 0e 35 43 bf
       -0.3884671 -0.5796112 -0.38204145 -0.7625283
000140 54 f8 df bf a6 14 ea be 77 cb 02 bf 43 32 db bc
       -1.7497659 -0.45718879 -0.5109171 -0.026757365
000150 a4 b9 27 3f 8c f7 e0 bd 3d 58 80 be b0 df 7b bd
       0.6551764 -0.10984716 -0.2506732 -0.061492622
000160 b5 43 36 3e 1d ac 5f 3e 2e 3f 0d bf 34 82 1e bf
       0.17799266 0.21843 -0.5517453 -0.61917424
000170 ff 49 ea 3e 30 48 87 3e 30 2f 4d 3e 31 d9 ec be
       0.4575958 0.26422262 0.20037532 -0.46259454
000180 9f df 1e be 8f a4 28 bf a2 77 3d bf 7e 68 d8 be
       -0.15514992 -0.65876096 -0.7401067 -0.4226722
000190 1b 7c 40 3f 9b 77 13 3f 00 14 18 bd cf 3b fe 3c
       0.7518937 0.5760438 -0.03712845 0.031034378
0001a0 a6 cd f5 bd 4a 21 a2 3e c0 4d f5 be 82 07 e2 3f
       -0.12002115 0.31666023 -0.4791088 1.7658541
0001b0 00 c1 3a 3e a4 97 82 3e 39 ed ba 3d d1 9e 35 be
       0.18237686 0.25506318 0.09127278 -0.17736365
0001c0 23 30 fe be 7f 6a 5e be 2f 8d 33 be d7 08 8f be
       -0.496461 -0.21720313 -0.17534326 -0.27936432
0001d0 62 e8 bc 3d 9d e7 5f 3d 90 d5 0f bc d4 29 07 bd
       0.09224011 0.054664243 -0.008778945 -0.032998875
0001e0 b3 b5 2a be 5b 46 38 3d 1a 0a 46 be 95 a7 30 be
       -0.16670875 0.04498897 -0.19339791 -0.17251427
0001f0 0f 89 d7 bd f2 9d 45 3c ad 46 db bd 37 50 10 be
       -0.10524189 0.012061583 -0.1070684 -0.140931
000200 81 df a2 3e 07 d2 76 3d 92 35 3f 3d 11 c9 45 3c
       0.31811145 0.06025889 0.046681948 0.012071864
000210 a2 80 87 bd 52 fe a1 bc e0 a1 a7 3c 19 2d 1f 3f
       -0.06616332 -0.01977459 0.02046293 0.6217819
000220 e6 3d 2c 3e fd a7 12 3e de 8e d4 3e 1b 4c 90 3a
       0.16820487 0.14321895 0.4151525 0.0011009009
000230 a6 36 ab 3c 63 5a 71 3f d2 5d 44 bc 65 65 2b bd
       0.020900082 0.94278544 -0.011985259 -0.041844744
000240 ad 10 4b bf d4 3d 6f 3e c8 be 36 3d fd 05 27 bd
       -0.7932232 0.2336343 0.044615537 -0.040777195
000250 d0 3c 34 3e 3d 38 23 3f 4d 57 11 bf 3f 8d 48 bf
       0.17601323 0.6375769 -0.56773835 -0.78340524
000260 4b 78 17 3e 2f 95 ea bf ce 1d 27 3f 8b 2a 62 be
       0.14791982 -1.8326777 0.65279853 -0.22086541
000270 a6 b2 4f 3e 04 df 02 bf a1 4f 1c 3f 5b 66 6c 3e
       0.20282993 -0.51121545 0.61059004 0.2308592
000280 19 75 50 3f 8f 85 9e 3e 32 7b 57 3e 6d 12 a1 3d
       0.81428677 0.30961272 0.21043089 0.078648426
000290 66 39 03 3e 21 da ad be 71 9a f9 be 88 49 1d bf
       0.12814865 -0.33955482 -0.48750642 -0.61440325
0002a0 3b ce d8 3e de cc 7c bd 8d b1 a8 be c5 f7 3b 3f
       0.4234484 -0.061718814 -0.3294796 0.7342494
0002b0 3f 07 a3 3c 9d a7 36 3e e5 59 ad bd 0f 6e 08 bf
       0.019900916 0.17837377 -0.08464412 -0.53292936
0002c0 b2 12 3f 3e 45 5e 96 be 04 65 11 3f 83 95 a9 be
       0.18659475 -0.29368797 0.5679476 -0.3312188
0002d0 c6 9a 88 bc 84 22 df bd 6d 80 63 bd b3 5f 9b 3e
       -0.016675364 -0.10895255 -0.0555424 0.3034645
0002e0 35 f8 e5 3e 96 bf 1a be cb 26 95 be 95 f2 ba be
       0.4491593 -0.15112147 -0.2913116 -0.365132
0002f0 76 34 df 3e cd 20 b4 be 81 a4 7d be 9e 74 0d be
       0.43594712 -0.35181275 -0.24769785 -0.13814017
000300 d3 54 31 3c 58 b6 8a 3e ef ea 65 be bf 1a df be
       0.010823446 0.27092242 -0.22452901 -0.43575093
000310 d3 22 01 3f 9b c2 bb be 49 2f e2 bd 11 00 76 3d
       0.5044376 -0.3667191 -0.11044175 0.060058657
000320 59 07 93 bd a4 a8 08 3e 5f e6 2b 3d fa 8b 08 bd
       -0.07179136 0.13345581 0.041967746 -0.033336617
000330 a6 57 e7 3d 9f ad 3e be ae 37 3a be 39 72 07 bf
       0.112960145 -0.18620919 -0.18185303 -0.52908665
000340 ca 97 71 bf 93 56 90 3e d8 72 b1 b9 56 46 2c bd
       -0.94372237 0.2819105 -0.00033845636 -0.042059265
000350 e7 50 79 3e 4c c1 4d 3d 92 86 6b 3d 06 3d 75 3e
       0.24347268 0.05023317 0.057501383 0.2394906
000360 e9 3e 86 bc fe 93 c8 3d a9 8e f5 be a4 b9 20 be
       -0.01638742 0.09793852 -0.47960404 -0.15695816
000370 78 ea a6 3d 59 6b 9e be 4d 45 84 bd 22 6e 7a be
       0.0815019 -0.30941275 -0.064585306 -0.24456075
000380 23 da 5b be b2 2b a6 bf 66 e4 f7 be 25 82 ac 3e
       -0.21469931 -1.2982085 -0.48416442 0.33693042
000390 63 ed 6b bf 2f 1a 79 bf 11 e8 80 bf 60 15 2e bc
       -0.921591 -0.9730558 -1.0070821 -0.010625213
0003a0 d9 1f d2 3e b4 e8 8a 3e da 2d b5 bf a8 5b 81 3f
       0.41039923 0.27130663 -1.4154618 1.0106096
0003b0 86 98 be be e0 98 10 bf 0c 09 59 bf 90 55 1f bf
       -0.3722574 -0.5648327 -0.8477943 -0.62239933
0003c0 a1 81 22 bf 97 85 cf bf b4 e9 0e 40 29 f1 92 3f
       -0.6347905 -1.6212643 2.233014 1.1479846
0003d0 1b 2b 2c bd 06 ce cd 3c fd b4 e6 bc ec ed 24 bd
       -0.042033296 0.025122654 -0.028162474 -0.040265962
0003e0 87 a2 2d 3e ed b4 80 be 83 d2 4f be 1a 78 67 3e
       0.1695653 -0.25138035 -0.20295148 0.22604409
0003f0 f4 9c 6d 3e dc e2 0e 3e 86 c4 5b be c6 89 72 be
       0.23204404 0.13953727 -0.21461686 -0.23685369

conv.0.kernels.4.bias f4 [4]
000000 a7 14 26 bb b2 10 ae 3e c3 cb a9 3d 38 d7 3f 3e
       -0.00253419 0.33997113 0.082908176 0.18734443

conv.0.kernels.5.weight f4 [4, 1, 11, 11]
000000 9b db 07 3d f4 3b d1 bf e4 af ef be 3f 48 2a 3f
       0.033168416 -1.6346421 -0.4681388 0.6651649
000010 c2 0d 64 be 20 de 32 be 6a d7 13 bf ff 1f 15 3f
       -0.22270873 -0.17467546 -0.5775057 0.5825195
000020 45 6b 69 3e ca 2c 59 3f db a1 4f bd c6 b8 cc 3e
       0.22794826 0.8483397 -0.050691467 0.3998472
000030 fb bc df 3e a4 81 a4 3e 69 5d 6c be e4 f8 8c be
       0.43698868 0.32130158 -0.23082508 -0.27533638
000040 06 df 0f bf 2b 65 75 be ff bf 85 be b4 14 16 3e
       -0.5619968 -0.23964374 -0.26123044 0.14656335
000050 0c 27 18 3f 7e 23 64 bf 97 82 b0 3e e7 63 13 be
       0.5943458 -0.89116657 0.34474632 -0.14393578
000060 41 9a 43 be 8e b8 84 be 96 f5 21 3e fe c8 bb 3d
       -0.19101812 -0.25922054 0.1581634 0.091691956
000070 0e 54 e5 bd ad d2 bd 3b 3c f0 78 3d 9d f0 16 3e
       -0.11197673 0.005792937 0.06077598 0.14740224
000080 6b 64 01 bd da 72 69 3d 93 f1 93 be 8f 40 c0 be
       -0.031589907 0.056994297 -0.28895244 -0.37549254
000090 01 58 af bd f6 e5 35 3e 5c 9b db 3e 7f d9 98 be
       -0.08561707 0.17763504 0.42891967 -0.29853436
0000a0 07 67 a0 be 60 d8 a6 3e 77 f8 2a 3e 5c a8 c4 be
       -0.31328604 0.32586956 0.16696344 -0.38409698
0000b0 ab e4 fb 3d eb c5 3c bf e2 96 a4 bd cb ac fa be
       0.12299474 -0.737395 -0.08036591 -0.48959956
0000c0 d6 ae 29 3e d0 6f 2b 3e ce c3 8b 3d 3c d6 bd 3e
       0.16570601 0.16741872 0.06824456 0.3707751
0000d0 c1 47 0a 3f a3 fb 22 3f 6b 1c 41 3e eb 5e 17 3e
       0.5401574 0.6366522 0.18858497 0.14782302
0000e0 00 76 cc 3d 64 ed f2 bd d1 e3 c9 3d f2 06 d1 bc
       0.09983444 -0.11861685 0.09857906 -0.025516007
0000f0 c9 3f 4b 3d f7 3a 00 be 55 fd 15 bd cc b3 31 bd
       0.049621377 -0.12522493 -0.03661855 -0.04338436
000100 23 c5 a8 3d e8 e1 cf 3c 89 81 59 3f ae 91 7a bf
       0.08240726 0.025376275 0.8496328 -0.9787854
000110 63 cb 98 be 7b 34 96 be ea 10 3c bb 7a 72 4c 3e
       -0.29842672 -0.29336914 -0.0028696605 0.19965544
000120 76 5e 31 3d 04 02 c7 3e 00 0e bc be 07 f8 25 bf
       0.043302976 0.38868725 -0.3672943 -0.64831585
000130 83 f9 b0 bf db d6 81 3f 86 d7 b5 be 28 08 c9 bd
       -1.3826145 1.0143694 -0.35515994 -0.09816009
000140 06 f0 27 bc 3e d9 00 bf d7 a8 01 bf 3b 72 11 3d
       -0.010250097 -0.50331485 -0.50648254 0.03550933
000150 4c 4d 14 3f 6b 31 0c c0 b4 59 29 bf 6d 6e ee 3f
       0.57930446 -2.1905162 -0.661525 1.8627449
000160 c0 be 83 bf 26 25 04 bf 4d 42 e3 bd c8 10 db 3e
       -1.0292587 -0.51619184 -0.1109663 0.4278624
000170 76 ed 4f bd 7b 6a 37 be d4 f5 8c be 8a ed e1 be
       -0.05076357 -0.17911713 -0.27531302 -0.4412654
000180 c8 80 47 3f be 4f 80 be ca 0a c1 3f a8 fd ee be
       0.7793088 -0.25060838 1.5081418 -0.466779
000190 2e 73 91 3f 4b ac f2 be f7 c4 17 c0 48 f7 3e be
       1.1363275 -0.47397074 -2.3713968 -0.18649018
0001a0 78 7c 55 be a6 62 d7 be ba a7 8b be e4 d2 6f bf
       -0.20848262 -0.4206745 -0.27276403 -0.9368117
0001b0 ca eb de bf f1 ee 83 3f 15 36 29 ba fd a5 e2 be
       -1.7415707 1.0307294 -0.0006454897 -0.44267264
0001c0 3a 0d 14 c0 ea a6 60 3f ce bb 70 bf 26 a5 85 bf
       -2.3133073 0.8775469 -0.9403657 -1.0441024
0001d0 9f f4 7d 3e 9d bf de 3e d4 7c 5f bf 57 a0 cd be
       0.24800347 0.43505564 -0.8729985 -0.40161392
0001e0 6f 26 ce 3d 21 dc fc 3d 28 f7 29 bf 34 97 92 be
       0.100659244 0.12346674 -0.66392756 -0.28630984
0001f0 c2 c5 10 3f 43 c3 df 3e b8 02 3b 3e b7 d9 8d bf
       0.56551754 0.4370366 0.18262756 -1.1082066
000200 c3 3a a1 3f cf 5f a7 bf f7 9c 46 bf cb 62 a5 ba
       1.2596058 -1.3076113 -0.7758326 -0.0012617944
000210 2f 9b d8 bc 5d 8f 1e bf 7d 97 fe be d4 07 aa 39
       -0.026441185 -0.61937505 -0.4972495 0.0003243076
000220 b8 48 0d 3f ae 71 7f 3d 3d 69 4d be 88 82 44 bd
       0.55189085 0.062364273 -0.20059676 -0.047976047
000230 26 a9 d7 3d b9 a6 41 3e 6c 52 d0 be 21 aa 06 bf
       0.105303094 0.18911256 -0.40687883 -0.52603346
000240 f6 b4 06 bf 24 8f 1f bf 45 2f 67 3e 69 c7 5a 3e
       -0.52619874 -0.6232779 0.22576626 0.21365131
000250 ea fb 86 3e 95 60 c0 be c9 2e 82 be 56 19 39 bf
       0.2636407 -0.37573686 -0.2542632 -0.72304285
000260 c7 06 47 bf 0e 1d ab bd 90 d3 bc bf 12 26 9e be
       -0.77744716 -0.08355151 -1.4752064 -0.3088842
000270 19 c0 15 3f b8 0a 07 3f b4 c1 82 3d f0 f1 d1 bd
       0.5849624 0.5275073 0.06384602 -0.10251224
000280 8f 5c 43 be 02 db c2 3e 00 5c 13 bf cc 25 d1 3f
       -0.19078277 0.38057715 -0.57562256 1.633966
000290 b8 cc 96 3f 94 2e 1e 3e a8 3d 07 3d dd 41 2e 3e
       1.1781225 0.15447456 0.033017784 0.17017312
0002a0 97 7c 42 3e 27 f0 db bc b8 e3 fe be 60 91 75 be
       0.1899284 -0.026847912 -0.4978311 -0.23981237
0002b0 12 ac 31 be 04 4c 9b be 99 05 df bc 5d 96 98 3e
       -0.17350796 -0.30331433 -0.027224349 0.29802218
0002c0 48 00 a5 3e e0 c3 10 3e cd 2a e7 3d 1c 6c c6 bd
       0.32226777 0.1413722 0.112874605 -0.09688589
0002d0 27 28 43 be 38 d7 c2 bd e5 c9 8f be 41 72 0b be
       -0.19058286 -0.09513706 -0.2808372 -0.13617803
0002e0 8a c1 b4 3c 28 cf 42 bd ce 84 89 3d 9e a8 9d be
       0.022064943 -0.04756084 0.067147836 -0.30792707
0002f0 f0 69 05 be 86 03 9a bc 5f 0f 37 3e 1d 97 47 3d
       -0.13028693 -0.018800508 0.17876957 0.048728097
000300 5d 86 93 bd 18 7e 4c bd 0d 2f 4f bd df 8b a3 3c
       -0.07203362 -0.04992494 -0.05058198 0.019964157
000310 79 13 08 3d 46 b0 9c 3e 74 ea c4 be e2 c0 00 3f
       0.033221696 0.30603236 -0.38460124 0.50294316
000320 9b 47 69 3e d7 67 93 3e 30 a1 1a 3f ae ca 0c 3d
       0.22781222 0.2879016 0.604022 0.034372978
000330 a8 e8 76 bd 39 c1 70 3f db 72 ba be c2 e1 12 3e
       -0.060280472 0.94044834 -0.36415753 0.14343932
000340 d5 36 43 3f 5c aa 80 c0 27 c2 66 bf 66 45 92 3e
       0.7625554 -4.020796 -0.9014 0.28568572
000350 ea ec bc 3d 47 13 10 3d c1 e7 fb 3d d7 bd 14 3f
       0.09224875 0.035174634 0.12300063 0.5810217
000360 2b 88 29 bf 2b 5d 30 bf 21 78 78 3e a7 73 4f 3f
       -0.662234 -0.68892163 0.24264576 0.81035846
000370 37 ed 26 bd 2c ba e3 bf 97 47 3b 3f 97 82 81 be
       -0.04075357 -1.779119 0.7315611 -0.25294945
000380 e4 01 5b 3e 10 a9 31 bf 30 cc d7 3e e5 ab a8 3e
       0.2138744 -0.69398594 0.4214797 0.32943645
000390 d2 54 46 3f 10 e5 8b 3e 31 87 7b bf 46 01 e8 bd
       0.77473176 0.27323198 -0.9825316 -0.11328368
0003a0 d3 d0 1f 40 76 68 17 40 d5 6f 8d 3f 02 7f a2 3e
       2.4971206 2.3657508 1.1049753 0.31737524
0003b0 ae e7 b1 3e 1c 96 bb 3e 49 db c1 be f8 3f ae 3f
       0.3474707 0.36637962 -0.37862614 1.3613272
0003c0 50 43 88 3f 39 16 2e bd be 60 95 3d c8 33 14 3f
       1.0645542 -0.042501662 0.07293843 0.5789151
0003d0 e1 bb 31 3c 46 39 f0 be ce 04 5e 3c 76 cf 41 be
       0.0108480165 -0.46918696 0.01355095 -0.18926796
0003e0 11 15 31 3e aa bf 06 bf 43 4a 3c bc 53 dc d5 3f
       0.17293192 -0.52636206 -0.011492315 1.6707863
0003f0 b3 15 6d bd 13 fc 07 bf dc 77 4a 3e ea 67 0c 3d
       -0.057882022 -0.5311901 0.19772285 0.034278788

conv.0.kernels.5.bias f4 [4]
000000 a7 14 26 bb b2 10 ae 3e c3 cb a9 3d 38 d7 3f 3e
       -0.00253419 0.33997113 0.082908176 0.18734443

conv.0.kernels.6.weight f4 [4, 1, 13, 13]
000000 41 89 97 3d 9c 64 95 bc cd 2d 2a 3b 6c 9c 00 3f
       0.07399226 -0.01823645 0.002596724 0.5023868
000010 99 03 c8 3c b0 0c 72 3d 3c 49 62 3c 7b 12 cd 3d
       0.024415778 0.05909413 0.013811406 0.100132905
000020 58 d2 8d bf 17 4e 57 3e 0c ef 7c bc 38 7d a5 3d
       -1.1079817 0.21025883 -0.015437853 0.08080524
000030 e5 89 e4 bc 69 e8 3f 3d de cd 11 3e 2a e3 d5 bf
       -0.027897784 0.046852503 0.14238688 -1.670995
000040 db 7d e7 be 89 42 26 3f b9 80 5a be d0 64 fa bd
       -0.45213208 0.64945275 -0.21338166 -0.1222626
000050 a5 97 0f bf 0b 14 2f 3f 89 81 d2 3e 1f 52 4d 3f
       -0.56090766 0.6838996 0.41114452 0.8020343
000060 da 0f a5 3c 3a 16 11 be f6 27 2d 3f 80 33 bf 3e
       0.02014916 -0.14168635 0.676391 0.3734398
000070 fe 63 d8 3e 70 00 33 3e 20 69 60 be d0 31 a4 be
       0.42263788 0.17480636 -0.21915102 -0.32069254
000080 af 5d eb be 13 cb 12 be 5c ff 84 be 96 b5 cf 3b
       -0.45969912 -0.14335279 -0.25976074 0.0063387854
000090 af 7f 29 3f fb 2c 8a bf bc 20 f3 be 16 ab 74 3e
       0.66210455 -1.0794977 -0.47485912 0.23893389
0000a0 cf e0 f3 3e dc 58 ab bd 51 76 1c be e6 aa b3 be
       0.47632453 -0.08366558 -0.15279509 -0.35091323
0000b0 5b 93 53 3e a8 82 9c 3c b3 4e ee bd 18 b5 96 3c
       0.2066168 0.01910527 -0.116361044 0.0183969
0000c0 40 a9 0f 3e 8e 45 45 3e 77 f2 1f be f5 12 04 bf
       0.14029408 0.19264814 -0.15619837 -0.51591426
0000d0 86 6d 89 bf 82 62 f5 3c 4d e6 5e be 49 d4 d9 be
       -1.0736549 0.029954199 -0.2176754 -0.42544773
0000e0 ec e5 bb 3b 6e ca 37 3e a6 ee c3 3e 04 c9 1d be
       0.005734196 0.17948315 0.38268012 -0.15408713
0000f0 75 b0 88 be e2 5b cb 3e 2c 35 16 3e b4 e1 fa be
       -0.26697126 0.3971854 0.14668721 -0.49000323
000100 f0 1b 65 3f c6 7b d5 bf 26 60 77 3e a6 44 3f bf
       0.89495754 -1.6678398 0.24157771 -0.74714124
000110 7d 4f 6a be e4 0d 09 bf 0f e4 5b 3e 15 92 61 3e
       -0.22881885 -0.5353682 0.21473716 0.22028382
000120 b9 92 e3 3c 56 25 97 3e 59 64 d2 3e bb a7 26 3f
       0.027779924 0.29520673 0.41092184 0.65099686
000130 4e 9d 50 3e f7 6d 28 3e 2a 94 10 bd 76 d6 42 3e
       0.20372507 0.16448198 -0.03529755 0.19027123
000140 40 2f 26 3e 15 4e 9f bd 13 9e ab bd ac bf ff 3c
       0.16228962 -0.07778565 -0.0837976 0.031219326
000150 84 fe 89 ba 6b 0e 00 be 0c 25 9b 3c 9b e3 cf bd
       -0.0010528122 -0.125055 0.018938564 -0.10150834
000160 9c 52 3b 3d 71 24 1c 3e 6c 89 a5 3d 9a 8e b9 be
       0.04573308 0.15248276 0.08082852 -0.3624161
000170 93 bf 46 3f 18 7e 69 bf 55 b4 a7 be 05 46 cd be
       0.7763607 -0.9120803 -0.3275477 -0.40092483
000180 49 f6 0b 3d c8 c3 10 3e ce 25 88 3d f1 2d 7f 3e
       0.034170423 0.14137185 0.06647836 0.24919869
000190 81 d2 cd be d4 44 06 bf 50 7f a5 bf 04 c1 93 3f
       -0.40199664 -0.52448773 -1.2929478 1.1543279
0001a0 03 fb 3d 3f b3 57 8c 3f 74 a5 dd be 56 a2 3b be
       0.7421114 1.0964264 -0.43290293 -0.18323645
0001b0 e2 f4 a8 3c 64 7f e9 be b9 56 10 bf 5c 73 a5 3c
       0.020624582 -0.45605004 -0.5638233 0.02019661
0001c0 54 26 18 3f 79 89 04 c0 61 ca 48 bf 69 a7 f7 3f
       0.59433484 -2.0708907 -0.78433806 1.9347965
0001d0 c2 0e 27 be 0f 45 b4 c0 9e 9a 80 bf 53 3a 04 bf
       -0.16314223 -5.63343 -1.0047185 -0.51651496
0001e0 d3 5e 99 bd 9f 9b 03 3f d9 3b 5a be ac e3 49 be
       -0.074887894 0.51409334 -0.21311893 -0.19715756
0001f0 27 bc ad be 2c 1c d7 be 0b c8 3f 3f d3 c2 b0 be
       -0.3393261 -0.4201368 0.74914616 -0.3452364
000200 9f f6 ab 3f 4b 06 03 c0 83 a2 af 40 e5 2b ce be
       1.3434638 -2.047259 5.488588 -0.40267864
000210 58 32 82 3f 50 e9 0c bf 50 01 16 c0 12 29 60 be
       1.0171614 -0.55043507 -2.34383 -0.21890667
000220 1c 23 37 be f3 98 09 bf ef e8 dc be e2 eb 6e bf
       -0.17884487 -0.53749007 -0.43146464 -0.9332868
000230 0c f0 db bf ce 64 78 3f ce aa 22 bd 45 d3 49 bd
       -1.7182631 0.97028816 -0.039713673 -0.049273748
000240 3c b4 af 3c 31 56 a6 be 87 ee 1d c0 2b 0b 65 3f
       0.021448247 -0.32487634 -2.4676836 0.89470166
000250 07 27 77 bf c7 86 80 bf bd 26 0e 3e 51 33 e6 3e
       -0.96543926 -1.0041131 0.13881965 0.44961026
000260 3a 84 5c bf d5 6d 01 bf ee a0 d9 3d 48 09 1e bd
       -0.8613926 -0.50558215 0.10626398 -0.03858307
000270 a9 17 e4 bd 38 d7 73 3d ad 47 bb 3c 0d d8 52 3f
       -0.11137325 0.05953142 0.022861326 0.8236092
000280 e3 99 ad 3e 4c 57 fc 3e ba cc 70 bf d4 06 22 be
       0.3390647 0.49285352 -0.9406239 -0.15822917
000290 09 b5 12 3f ff ed b9 3f b3 d1 00 bc ce c2 2b bd
       0.5730749 1.4525756 -0.007862496 -0.041933827
0002a0 61 a6 5e bd c8 59 90 3c de 22 68 bc e4 fb 26 3c
       -0.05435789 0.017620936 -0.014168469 0.010191891
0002b0 8d 14 9a be a5 ee 04 3f 17 0d bb 3f a3 05 b6 3e
       -0.30093804 0.5192664 1.461337 0.35551175
0002c0 64 12 4e be b2 88 c7 3f ce d5 fc bf f4 be 93 bc
       -0.20124203 1.5588591 -1.9752748 -0.01803539
0002d0 41 d2 99 3d e6 4e a3 bc 00 86 9e bb 88 b5 13 bd
       0.07510806 -0.019935083 -0.0048377514 -0.036061794
0002e0 11 00 1c bf 68 8c b5 be 5d d6 f5 3e 1d f7 d4 3e
       -0.609376 -0.35458684 0.4801511 0.41594782
0002f0 c0 d0 13 3e e6 c1 95 bf 1e 6d 99 3f 9d e3 ae bf
       0.144351 -1.1699798 1.1986425 -1.3663212
000300 d4 b3 52 bf d0 39 89 bc 69 b5 de 3d 90 46 ab 3f
       -0.82305646 -0.0167512 0.10874445 1.3380909
000310 3d a7 bd bd f9 db f2 be 79 f9 cb be 52 ef ab bd
       -0.09260414 -0.4743345 -0.3983877 -0.08395256
000320 44 04 1e 3f 36 e2 06 be 78 d7 44 be 62 d0 d9 bd
       0.6172526 -0.1317223 -0.1922282 -0.10635449
000330 64 e9 18 3e be 57 81 3e 74 e8 7a be e4 fd 4c bf
       0.14932781 0.25262254 -0.24502736 -0.80074906
000340 aa d8 96 be dd 8c e9 be a5 70 11 bf 90 b9 fa be
       -0.29462177 -0.45615283 -0.56812507 -0.48969698
000350 3d 86 79 3e 11 7b 87 3e d4 e8 07 3e d1 f3 e7 be
       0.24367614 0.2646108 0.1327241 -0.45303205
000360 18 29 55 be d0 75 34 bf dc b1 5b bf 52 01 ec bc
       -0.20816457 -0.7049227 -0.85818267 -0.028809223
000370 4b 24 ae bf e6 73 cc 3f fa 14 c4 bf f8 b0 e0 be
       -1.3604826 1.5972869 -1.5318902 -0.43885016
000380 61 ea 12 3f 33 e2 ff 3e f0 08 19 3d 6d 66 32 bd
       0.57388884 0.49977264 0.03736204 -0.043554712
000390 2e 5c fb bd aa 31 c0 3e 35 9b 0c bf b3 6b d6 3f
       -0.12273441 0.3753789 -0.5492433 1.6751617
0003a0 8c dc 9b 3f 71 ff 29 bf c8 ea 0a 3c 71 20 07 3e
       1.217668 -0.664054 0.008478828 0.13195969
0003b0 05 c3 be bc a2 61 70 3e a0 3d 8f 3e 42 f5 a5 3b
       -0.023286352 0.23474744 0.27976704 0.0050646374
0003c0 8c 42 03 bf 40 e1 96 bd 8c c6 83 be b6 ce c6 be
       -0.5127342 -0.07367182 -0.25737417 -0.38829583
0003d0 df 75 84 3d 6f af 5a 3e 42 81 f9 bd dc f6 86 3e
       0.064677946 0.21355985 -0.12182857 0.26360214
0003e0 a1 0e a4 3e e8 19 ed 3d c4 7d 59 bd 9b a4 bb bd
       0.3204241 0.11577207 -0.053098455 -0.091622554
0003f0 fc cd 21 be d8 99 96 bd b8 24 51 be db a8 6b be
       -0.15801233 -0.07353562 -0.20424163 -0.23013632

conv.0.kernels.6.bias f4 [4]
000000 a7 14 26 bb b2 10 ae 3e c3 cb a9 3d 38 d7 3f 3e
       -0.00253419 0.33997113 0.082908176 0.18734443

conv.0.kernels.7.weight f4 [4, 1, 15, 15]
000000 f5 a5 04 bd ff 91 73 3c 26 10 6b bd dc 74 33 bc
       -0.03238483 0.014866351 -0.057388447 -0.010953154
000010 a2 27 33 bf d8 3c 63 3f 69 02 cc 3d ec 50 69 3f
       -0.6998235 0.88764715 0.09961397 0.911391
000020 e9 d1 8e 3e 8d c1 54 bf 7a 7d f1 3f c2 24 b2 b9
       0.27894524 -0.83107835 1.8866417 -0.00033978192
000030 ce 17 b4 bd ae 25 73 bd 94 d4 ab 3c a8 4c 99 3d
       -0.08793603 -0.059362106 0.020975389 0.07485324
000040 a2 e7 54 3d 2c 14 bd 3b 1c 9e f2 bc 39 a9 ef 3e
       0.051978715 0.005770227 -0.029616408 0.46808794
000050 b1 c5 9d bd 8a 17 69 3d fe 30 16 bc 1b 38 b3 3d
       -0.07703722 0.056907214 -0.009166954 0.08750936
000060 c6 74 9f bf 37 a6 29 3e cf 2a c0 bd ea 37 1c bd
       -1.2457511 0.16567312 -0.09383165 -0.03813926
000070 eb c2 ff bd 63 29 f9 3c cc 91 a0 3d bb 7b eb bc
       -0.124883495 0.030415243 0.078403085 -0.028745523
000080 38 43 d6 bc 47 89 d4 bf fd 85 ef be 73 89 22 3f
       -0.0261551 -1.6604394 -0.46781912 0.6349098
000090 3e 3f 16 be 34 50 40 be 9b 33 00 bf 05 f0 13 3f
       -0.14672562 -0.18780595 -0.50078744 0.57788116
0000a0 20 20 b7 3e 55 16 62 3f 86 6a 86 3d 01 d0 fe bb
       0.35766697 0.88315326 0.065632865 -0.007776261
0000b0 2b 75 26 bd 60 08 49 3d 45 21 30 3f 53 01 fe 3e
       -0.040639084 0.049080253 0.68800765 0.49610385
0000c0 7a 6e e0 3e 05 1a 9e 3e 20 ee f1 bd db 1b 79 be
       0.43834287 0.30879226 -0.11812997 -0.24327032
0000d0 16 da dd be 25 ee 23 be a6 b2 7b be 12 61 93 3d
       -0.4333045 -0.16008814 -0.24579868 0.07196249
0000e0 42 9f 20 3f 26 30 7b bf 0f 93 ed be 7b 10 79 3d
       0.6274301 -0.98120344 -0.4640126 0.060806733
0000f0 ba bc ae bd 24 3c 71 3e bc 2b ed 3e d3 e3 78 3d
       -0.085320905 0.23558098 0.4632243 0.060764145
000100 fd 2f 5f be 19 94 34 be 93 e1 81 3e b9 23 09 3d
       -0.2179565 -0.1763462 0.25367412 0.033481333
000110 01 73 d2 bd 96 ab 88 3d a5 08 24 3d d0 4b 17 3e
       -0.102758415 0.066733524 0.040047307 0.14775014
000120 51 4f 0a bd ab 5b dc be f7 8b 74 3d 06 eb 3c c0
       -0.03376705 -0.43038687 0.059703793 -2.9518447
000130 1c c6 83 bf 51 39 f3 3d c9 2a 03 be ca 34 b3 be
       -1.0294833 0.118761666 -0.1280929 -0.35001212
000140 5e b5 1c be a7 4e 19 3e 46 23 b4 3e 8d 25 52 be
       -0.15303561 0.1497141 0.35183161 -0.20522137
000150 1b ed 84 be b8 43 86 3e 6d d6 3a 3e c4 d1 e2 be
       -0.25962147 0.2622354 0.1824586 -0.44300663
000160 b9 7b 5f 3f 6b 1f 15 3e a8 6d f8 bf ff a7 d9 bf
       0.8729816 0.14562766 -1.9408464 -1.7004393
000170 76 8e cb 3d 2a 4b 36 bf 12 36 49 bd c9 92 01 bf
       0.09939282 -0.7120844 -0.04912383 -0.506146
000180 5c 6c aa 3c 43 27 31 3e 6d 37 41 3e 98 d9 c0 3e
       0.020803623 0.17300133 0.188688 0.3766601
000190 58 ac ba 3e 89 9c 30 3f f0 a2 3c 3e cf 37 86 3e
       0.36459613 0.68988854 0.1842153 0.26214454
0001a0 5f b6 7e bf 55 aa cb be 31 51 ca 3c dd 31 91 3e
       -0.99497026 -0.3977839 0.024696918 0.28358355
0001b0 a5 25 06 3e 34 c9 f2 bd 94 3f 35 3d f2 3b ff 3c
       0.13100298 -0.11854783 0.044250086 0.031156514
0001c0 0d 0b b0 3c ee 6e 01 be 68 ff 29 bd 4b b6 28 bc
       0.021489644 -0.12639973 -0.04150334 -0.010297368
0001d0 ed 16 e8 3d 90 19 1d 3e 7c 22 02 3e 71 aa 25 be
       0.11332498 0.15341783 0.12708467 -0.161783
0001e0 c1 2a 99 c0 f2 6e cf be 9e 0d 33 3f 4c 58 5f bf
       -4.786469 -0.40514332 0.69942653 -0.87244105
0001f0 7d ac 87 be 62 88 92 be 69 a9 42 3e 14 d5 53 3d
       -0.26498786 -0.28619677 0.19009937 0.05171688
000200 44 8c dc 3d df d6 af 3e 4b 0a d6 be 4a 5c 07 bf
       0.10768941 0.3434362 -0.41804728 -0.52875197
000210 bd 5c ab bf cc 9c 93 3f cb 4a 02 be 3b 47 b9 c0
       -1.3387676 1.1532226 -0.12723844 -5.789945
000220 a1 15 2f 3f 2e 05 8e 3f 83 49 e8 be 5c ca 32 be
       0.6839238 1.1095331 -0.45368585 -0.17460006
000230 2a 0c 32 bd 94 5e 02 bf cb fd 00 bf 3b 35 2d 3d
       -0.04346863 -0.50925565 -0.5038726 0.042287093
000240 2e 43 2b 3f b9 5a 0b c0 02 fc 3e bf 68 41 fe 3f
       0.66899383 -2.1774123 -0.74603283 1.986371
000250 57 b9 54 be 46 a5 72 c0 64 34 2f 3d 1b 7b b4 c0
       -0.20773827 -3.7913375 0.042774573 -5.6400275
000260 09 06 8b bf 71 2e c8 be 3d db 0d bd a3 e6 1f 3f
       -1.0861217 -0.39097932 -0.03463291 0.624613
000270 a9 37 aa bd 19 46 14 be e1 53 f2 be 08 ef 01 bf
       -0.083113976 -0.14479865 -0.4732962 -0.5075536
000280 f1 48 2f 3f 35 aa 32 be e5 91 aa 3f d0 4a fc bf
       0.68470675 -0.17447741 1.3325773 -1.9710331
000290 48 9d c4 3c 1d 47 c0 3b 23 23 b1 40 81 07 ff be
       0.024000779 0.0058678524 5.535539 -0.49810413
0002a0 4f 06 97 3f c1 2c 0c bf 8a 73 1e c0 91 d2 57 be
       1.17988 -0.5475579 -2.475802 -0.21076418
0002b0 a2 13 90 be 5b 94 02 bf af d2 d5 be cb 4c 6b bf
       -0.2813998 -0.5100762 -0.417623 -0.9191405
0002c0 dc 5a e9 bf 2e a3 80 3f e5 0f 0f bd 8d 0d c4 bd
       -1.8230853 1.0049798 -0.034927268 -0.09572897
0002d0 4a 06 10 3d 42 50 34 bc c4 bf a5 bd 5a 9b b7 be
       0.035162248 -0.011005463 -0.08093217 -0.3586071
0002e0 32 5b 11 c0 e6 0f 45 3f 9e 01 6f bf 09 ec 83 bf
       -2.2711911 0.76977384 -0.9336184 -1.0306407
0002f0 5d 18 91 3e 7b c5 ef 3e 36 4e 65 bf e4 69 d1 be
       0.283389 0.46830353 -0.89572465 -0.409011
000300 11 05 52 bd 95 cc 04 bd ed a7 d2 ba b1 45 7a bd
       -0.051274363 -0.032421667 -0.0016071774 -0.06110162
000310 42 a0 44 3d 53 31 ca 3d 63 54 2c 3c 32 32 5c 3f
       0.048004396 0.09872689 0.010518166 0.8601409
000320 1c 3b c6 3e 42 db 00 3f 06 69 6e bf 6c ec 9d bd
       0.38716972 0.5033456 -0.93129003 -0.077111095
000330 7e 3e ee 3e da 11 c7 3f 92 14 e4 3d 00 aa 36 bd
       0.46532053 1.5552323 0.11136736 -0.04459572
000340 2e 76 a2 3d 61 a9 b3 3c 1d 09 37 bd 32 a7 cb bc
       0.07932697 0.021931352 -0.044686425 -0.024859998
000350 af e7 07 bc 19 9a a2 3d ac a8 fc 3f a2 93 51 40
       -0.008294984 0.07939548 1.9738975 3.2746358
000360 b8 1f c4 c0 64 51 22 be b8 5d 5b 3f fd c2 5d bf
       -6.128872 -0.1585136 0.8568988 -0.86625654
000370 db 67 bf 3d a4 d1 4b bd df 08 18 bd 0f cb 74 bc
       0.09345981 -0.049760476 -0.037117835 -0.014940991
000380 88 cb 8f bb 54 85 97 bc 36 12 ba bd 1c 6b 31 bd
       -0.0043882765 -0.018496193 -0.09085505 -0.043315038
000390 6b b0 59 3d 5b 51 80 3f 59 2c bb bd 53 36 21 3e
       0.05314676 1.0024828 -0.09139318 0.1574338
0003a0 9c e7 2d 3f c1 d9 b5 3e 70 a0 24 bf 40 a8 f0 bc
       0.6793153 0.35517696 -0.6430731 -0.029377103
0003b0 bc 0a ca 3c 65 d1 82 bc 0e b3 a9 bd 85 f3 fb bc
       0.024663322 -0.015968988 -0.08286105 -0.030755768
0003c0 d0 f2 1b 3d b0 a6 ab 3c 1f b0 ba 3b f4 62 19 3d
       0.03807336 0.020953506 0.005697265 0.037447885
0003d0 fe ce ce be 11 4f 20 3f 1e ff c5 3f b3 95 dc 3e
       -0.40392298 0.62620646 1.546848 0.4308296
0003e0 f0 09 b0 bd 92 c8 c0 3f 6d c2 fc bf 23 34 d0 3c
       -0.085956454 1.5061209 -1.9746834 0.025415486
0003f0 ca 1c 11 bc 71 63 9f bd f0 4b ef 3c 6f 9d 59 bd
       -0.0088569615 -0.07782639 0.029211015 -0.053128656

conv.0.kernels.7.bias f4 [4]
000000 a7 14 26 bb b2 10 ae 3e c3 cb a9 3d 38 d7 3f 3e
       -0.00253419 0.33997113 0.082908176 0.18734443

conv.0.kernels.8.weight f4 [4, 1, 17, 17]
000000 6b cd 4e bc 80 b1 36 bd 54 6a b4 bb 61 b9 2f 3d
       -0.012622218 -0.04460287 -0.0055058394 0.0429014
000010 fa 31 50 3b ed 43 bb 3b 61 dd a6 3f 6d e2 8d 3f
       0.003176807 0.0057148845 1.303631 1.1084725
000020 86 6b ac 3f 41 4f 1a 3f 31 74 14 c0 28 eb 08 3d
       1.3470314 0.6027718 -2.3195918 0.033427387
000030 d2 93 70 bd 19 d9 06 3c e1 4b 15 bc cf 71 fb 3c
       -0.058734722 0.008230471 -0.009112329 0.030693917
000040 7d c4 5e bc 73 c6 0d bd 44 39 a7 3d 00 c8 c9 3c
       -0.013596651 -0.034613084 0.081652194 0.0246315
000050 1b 42 16 3c 83 4a 50 3d 5a a4 21 bf 1c c4 77 3f
       0.009171034 0.05085231 -0.63141406 0.96783614
000060 ec 7e 99 3d f2 dd 81 3f cf 51 df 3e 98 a9 55 bf
       0.074949116 1.0145857 0.43617103 -0.83461905
000070 da 5c e7 3f 5d 42 76 bc 72 74 5b 3b 1e 6a e7 ba
       1.8075211 -0.015030471 0.0033486155 -0.0017655527
000080 61 41 09 bd 0b 02 72 3d 83 db 08 3d ad c4 fd 3c
       -0.033509616 0.05908398 0.033412468 0.030977571
000090 12 a4 80 3d 4f 84 b1 3d d1 57 90 bc 31 9d 0a 3f
       0.06281294 0.08667814 -0.01762 0.54146105
0000a0 18 46 40 be 53 48 8f 3d 9d f4 06 3d 9f b4 18 3d
       -0.18776739 0.069962166 0.032948125 0.03728163
0000b0 e8 fe 90 bf db a6 77 3e 12 d0 14 bb 5f 00 02 bd
       -1.1327791 0.24184744 -0.0022707027 -0.031738635
0000c0 47 53 74 3d b9 c7 9e bc 6b a4 d3 3c 6b f0 43 3a
       0.059649732 -0.019382345 0.025835237 0.0007474485
0000d0 10 12 12 bc 75 c9 8e 3d 93 1b a7 bb 03 c2 df bf
       -0.008915439 0.06972019 -0.0050997226 -1.7481083
0000e0 7c a8 e0 be 3b 91 32 3f 36 d1 11 be 1b 64 24 be
       -0.43878543 0.69752854 -0.14239964 -0.16053812
0000f0 5c b5 18 bf 0f be 11 3f 3d d4 c4 3e 37 d0 57 3f
       -0.5965173 0.5693063 0.38443175 0.84302086
000100 b0 06 54 3d 0e 7b 1b 3b 3b 89 21 3d 86 27 24 3d
       0.05176419 0.002372447 0.039437514 0.040076755
000110 1e b3 24 bd 85 b0 7b bb 7b dc 35 3f e9 84 e8 3e
       -0.040209882 -0.0038404774 0.7103955 0.45413902
000120 40 ad db 3e df 6a b6 3e dc bb ae bd 6c 5c a3 be
       0.42905617 0.3562841 -0.08531925 -0.3190645
000130 5d a4 f3 be 36 a0 0b be e6 b9 87 be c9 44 b8 3d
       -0.47586337 -0.13635334 -0.26509017 0.08997495
000140 8f 18 21 3f b6 8e 7f bf 92 b1 d8 be 5a 7a 53 3d
       0.629281 -0.99827135 -0.42322975 0.051630355
000150 7a 74 57 3d 74 52 4b bb 80 58 d3 bc 8a f2 4f 3e
       0.052601315 -0.0031024488 -0.025799036 0.20307365
000160 06 f0 03 3f f3 13 30 bd ae 76 52 be 8b 04 a4 be
       0.5153812 -0.042987775 -0.20553085 -0.32034716
000170 07 8b 91 3e de d8 93 3c 3f 9d d0 bd e0 62 38 3d
       0.28426382 0.018047746 -0.10186242 0.04501617
000180 e8 e3 f0 3d 92 26 4d 3e cb c9 ff 3c e4 d6 03 bf
       0.1176222 0.20034245 0.031224152 -0.5149977
000190 75 cb a3 bc fc cd 5e bd ad 9e b2 c0 b6 f8 3b c0
       -0.019994477 -0.05439566 -5.5818696 -2.937055
0001a0 0b 46 86 bf 1f 0d 1e 3e f6 25 51 be 93 d8 be be
       -1.0490125 0.15434693 -0.20424637 -0.37274608
0001b0 48 a1 95 bd 31 ba d5 3d 18 c8 ca 3e ca 75 79 be
       -0.073061526 0.10435904 0.39605784 -0.24361339
0001c0 2f 41 9b be 76 b6 d4 3e 01 a1 24 3e 82 f5 bd be
       -0.3032317 0.41545457 0.16077043 -0.3710137
0001d0 5d 8e 58 3f 5b 92 0c 3d a3 88 91 bf ca ef dc 3f
       0.8459223 0.034319263 -1.1369823 1.7260678
0001e0 7b 55 f3 bf e1 d1 d9 bf 7a cc 0b 3e 2d 5f 40 bf
       -1.9010462 -1.7017175 0.1365222 -0.75145227
0001f0 6a ee 0f be 3f 54 ff be 11 2e 2b 3d ee 1c 2f 3e
       -0.14055791 -0.49868962 0.04179198 0.1710088
000200 1d 9c 19 3d 46 13 ae 3e 9e f7 c7 3e be b8 32 3f
       0.037502397 0.3399908 0.39056104 0.69813144
000210 17 68 27 3e 55 fe 50 3e 97 0a 83 bf 2a 87 f9 bf
       0.16348301 0.2040952 -1.0237607 -1.9494374
000220 ad b4 ba be c2 e4 eb be d6 c8 41 3d e0 11 31 3e
       -0.3646597 -0.46072966 0.047310673 0.17291975
000230 09 05 2b 3d fe 9b 8c bd bf 0f 10 3d b2 b2 62 bd
       0.04175285 -0.06865691 0.035171267 -0.0553462
000240 c3 53 d7 3c 75 d3 c9 bd 5f 7b 42 3d 74 24 3e bc
       0.026285058 -0.09854785 0.047480937 -0.011605371
000250 27 34 2d 3e f4 6e 20 3e b1 57 74 3d e0 f0 42 bd
       0.16914426 0.15667325 0.05965394 -0.047592998
000260 3c b1 98 3d ef 26 08 c0 9a a9 9a c0 42 14 d9 be
       0.0745568 -2.1273763 -4.8332033 -0.42398268
000270 93 5a 60 3f 80 a7 7e bf 3b 32 ba be e1 a0 92 be
       0.87638205 -0.99474335 -0.36366448 -0.28638366
000280 7b 24 8a 3d 2b 03 3a 3d b7 7f 5a 3d f8 72 9f 3e
       0.06745239 0.045413177 0.053344455 0.31142402
000290 53 26 b9 be 8b d4 00 bf 85 2a a6 bf a1 e1 9c 3f
       -0.36162052 -0.50324315 -1.2981726 1.2256356
0002a0 3d e9 30 be 40 18 20 c0 42 22 79 c0 a9 fb bc c0
       -0.17276473 -2.50148 -3.892716 -5.90572
0002b0 eb 48 2a 3f 50 9c 91 3f 3e 02 dc be 10 8a f5 bd
       0.66517514 1.1375828 -0.4297046 -0.11989224
0002c0 29 aa 2c 3d 96 19 dd be 98 55 08 bf 21 a2 ba 3d
       0.042154465 -0.43183583 -0.53255606 0.09112955
0002d0 13 e7 22 3f 99 ef 08 c0 a5 ca 38 bf 73 0e f7 3f
       0.6363384 -2.1396239 -0.7218421 1.9301285
0002e0 51 9b 68 be 5a d7 72 c0 45 ac aa bf b0 34 68 3c
       -0.22715499 -3.794394 -1.3333822 0.014172718
0002f0 98 7d 58 bb f3 0d b6 c0 f8 f6 8e bf c5 cc fc be
       -0.0033033844 -5.689203 -1.1169119 -0.49374977
000300 8d 66 fe bd 09 d2 24 3f 1c da 58 bd d2 8d e4 bd
       -0.12421904 0.6438299 -0.05294238 -0.111598626
000310 ca 26 e1 be 24 f4 05 bf 3a c4 41 3f 19 a0 5b be
       -0.43974906 -0.52325654 0.7569004 -0.21447791
000320 01 df ae 3f d3 7d 00 c0 cd 15 1b bc ca b5 d4 bc
       1.3661805 -2.0076797 -0.009465647 -0.02596559
000330 96 61 ee bc fd c3 14 bc 71 dc b4 40 15 7b 01 bf
       -0.029099267 -0.00907993 5.6519094 -0.50578433
000340 8f 6e 8f 3f 80 2f fb be a4 59 1d c0 30 a0 2e be
       1.1205615 -0.49059677 -2.4585962 -0.17053294
000350 95 91 30 be 10 44 02 bf 69 16 d2 be 49 6e 68 bf
       -0.17243035 -0.50885105 -0.41032723 -0.9079328
000360 76 4c e5 bf 51 2a 7f 3f de da 06 bd 38 b6 f8 b9
       -1.7913959 0.99673945 -0.03292357 -0.0004743801
000370 14 b3 17 3c 8b 85 ac bc 5b 6e e7 bc f4 dc a9 3c
       0.009259004 -0.021059772 -0.028250864 0.020735241
000380 ea 3f ef b9 23 51 9e be 87 75 0f c0 57 b1 58 3f
       -0.00045633252 -0.30921277 -2.2415483 0.846456
000390 90 a8 7c bf 98 27 83 bf 54 85 23 3e db 90 c7 3e
       -0.98694706 -1.0246458 0.1596883 0.38977703
0003a0 c9 4b 5b bf 4a 41 09 bf 0f b4 0f bd c7 24 27 bd
       -0.85662514 -0.5361525 -0.035083827 -0.040806558
0003b0 81 f7 f9 bc 33 4d bc bb d9 1c 2d bc 40 8b 89 bc
       -0.030513527 -0.0057465076 -0.01056596 -0.016790032
0003c0 52 63 03 3d 1a 96 9f 3c 45 00 f6 bc a0 0a 54 3f
       0.03207714 0.019480754 -0.030029425 0.8282871
0003d0 2c 8b c1 3e bc 72 e3 3e 67 53 74 bf c7 ea fc bd
       0.37801492 0.44423473 -0.9543976 -0.12349468
0003e0 38 22 11 3f ab cd c6 3f a5 13 40 3d ab ec f0 3b
       0.5669284 1.5531515 0.046893734 0.007352432
0003f0 eb 71 93 3d 3d 18 c5 bc f0 cd e6 bb 13 b5 2b bd
       0.071994625 -0.02405941 -0.0070435926 -0.041920733

conv.0.kernels.8.bias f4 [4]
000000 a7 14 26 bb b2 10 ae 3e c3 cb a9 3d 38 d7 3f 3e
       -0.00253419 0.33997113 0.082908176 0.18734443
