gain_calib-LISTA/generalization/Results/net_JT_cal_rand.pth (torch, 56841 bytes, 30 tensors)

conv.0.kernels.0.weight f4 [4, 1, 1, 1]
0	0x3db1a94f	0.08674871
1	0x3e3e92e5	0.18610723
2	0x40ab0325	5.344134
3	0x3e6a55c8	0.22884285

conv.0.kernels.0.bias f4 [4]
0	0xbf274241	-0.6533547
1	0x3faf7884	1.3708653
2	0xbe878425	-0.26468006
3	0xbf15a4a9	-0.58454376

conv.0.kernels.1.weight f4 [4, 1, 3, 3]
0	0x3e99c976	0.30036515
1	0xbed397fc	-0.41326892
2	0xbf403834	-0.7508576
3	0xbdfd30fb	-0.12362858
4	0x3e6af237	0.2294396
5	0x3f26969a	0.6507355
6	0xbee5a745	-0.4485418
7	0x3dce8a66	0.10084991
8	0x3e443ea9	0.19164528
9	0x3df87cfc	0.12133214
10	0xbd611bc3	-0.054958116
11	0xbe07cbf4	-0.13261396
12	0xbe50c9f9	-0.20389546
13	0xbc2f0c8e	-0.010684146
14	0x3e6a0756	0.22854361
15	0x3d4141a0	0.047181726
16	0xbef4a7c4	-0.47784245
17	0x3e681c9b	0.22667162
18	0xbea9186a	-0.3302644
19	0xbf3a907d	-0.7287672
20	0xbed8cc29	-0.42343262
21	0xbee2cc90	-0.44296694
22	0x409f2fa4	4.9745655
23	0xbf47e7f2	-0.78088295
24	0xbe763efd	-0.24047466
25	0x3e4941ff	0.19654082
26	0x3eb761b6	0.35816735
27	0xbe59370f	-0.2121241
28	0xbe7e513b	-0.24835674
29	0xbd03b4a7	-0.032154705
30	0x3e15436d	0.14576502
31	0xbe086153	-0.13318376
32	0xbcdc7393	-0.026910579
33	0xbed221db	-0.41041455
34	0x3e9c9140	0.30579567
35	0x3d9db603	0.077007316

conv.0.kernels.1.bias f4 [4]
0	0xbf274241	-0.6533547
1	0x3faf7884	1.3708653
2	0xbe878425	-0.26468006
3	0xbf15a4a9	-0.58454376

conv.0.kernels.2.weight f4 [4, 1, 5, 5]
0	0xbe50d2a7	-0.20392857
1	0x3da83ef8	0.08215135
2	0xbf0a6652	-0.5406238
3	0x3eb921ab	0.361585
4	0x3d1995d2	0.037496395
5	0xbe83845f	-0.2568693
6	0x3e057a94	0.13035041
7	0xbd53fec7	-0.051756646
8	0x3db03215	0.086033024
9	0x3f3cf082	0.73804486
10	0xbeab03c1	-0.33401302
11	0x3dd440f6	0.10363953
12	0xbe25f440	-0.16206455
13	0x3e78f490	0.24312043
14	0xbe427e51	-0.18993498
15	0xbe772b88	-0.241377
16	0xbdcfea0c	-0.10152063
17	0xbe695efb	-0.22790138
18	0xbba60bc2	-0.0050673196
19	0x3f01b577	0.5066752
20	0x3d763c1a	0.06011591
21	0xbd8f0c38	-0.069847524
22	0xbe049043	-0.12945656
23	0x3dae9306	0.08524136
24	0xbf49b587	-0.78792614
25	0x3cc7f961	0.024410905
26	0x3d230855	0.039802868
27	0xbe9b81ae	-0.30372375
28	0xbe024faf	-0.1272571
29	0x3c77e087	0.015129215
30	0xbcb81d83	-0.02247501
31	0x3e132dac	0.14372891
32	0xbe564c5e	-0.2092757
33	0xbddc22bf	-0.10748815
34	0xbccfea66	-0.025380325
35	0x3eccf241	0.40028575
36	0x3d21c0d3	0.039490532
37	0x3e92002d	0.2851576
38	0xbd69b85f	-0.057060596
39	0xbd43a918	-0.047768682
40	0x3e15f865	0.14645536
41	0x3e630564	0.22170025
42	0xbd5e6a9a	-0.054300882
43	0xbdb075c1	-0.0861621
44	0xbeafcc07	-0.34335348
45	0x3ef82e67	0.48472902
46	0x3dbf2e98	0.09335059
47	0xbd056fae	-0.03257721
48	0xbc3a3206	-0.011364466
49	0xbecba3a0	-0.39773273
50	0xbf01c737	-0.506946
51	0x3e7329ea	0.23746458
52	0xbf0eed0f	-0.5583047
53	0xbed0a1d5	-0.40748468
54	0xbf7d2450	-0.98883533
55	0xbf7f499e	-0.99721706
56	0xbf073afd	-0.52824384
57	0xbef59ff8	-0.4797361
58	0xbedae7ce	-0.42754978
59	0xbf2d0323	-0.6758291
60	0xbe8b5a6f	-0.27217433
61	0xbe5f9664	-0.21834713
62	0x40941a4f	4.6282115
63	0xbf01abf2	-0.5065299
64	0xbd81f811	-0.06346143
65	0xbf607436	-0.87677324
66	0xbe075c67	-0.13218842
67	0xbed03cb1	-0.40671304
68	0xbb629416	-0.003457313
69	0xbd1369f1	-0.035989705
70	0xbeec8fc1	-0.46203426
71	0xbdd538c1	-0.104112156
72	0xbe0a687a	-0.13516417
73	0xbf339f8e	-0.70165336
74	0x3eb91eda	0.3615635
75	0x3ef1498d	0.47126427
76	0xbe89ef3c	-0.26940334
77	0xbe978e22	-0.29600626
78	0x3e961c37	0.293184
79	0x3dd2b440	0.10288286
80	0x3d786d09	0.06065086
81	0xbe9becac	-0.30454004
82	0xbe7c1469	-0.24617161
83	0xbe1b0927	-0.1514021
84	0xbef309b4	-0.4746834
85	0xbe07050d	-0.1318552
86	0x3e263b56	0.16233572
87	0xbe3b6789	-0.18301214
88	0xbe330c44	-0.17485148
89	0x3e8c5087	0.27405187
90	0x3ef7416f	0.4829211
91	0xbf05d813	-0.5228283
92	0x3e94b84a	0.2904685
93	0x3e0c45c7	0.13698493
94	0xbf438112	-0.7636882
95	0x3dde9357	0.108679466
96	0xbe55ae90	-0.20867372
97	0xbd40ebad	-0.047099758
98	0x3e20d052	0.15704468
99	0x3e82d764	0.25554955

conv.0.kernels.2.bias f4 [4]
0	0xbf274241	-0.6533547
1	0x3faf7884	1.3708653
2	0xbe878425	-0.26468006
3	0xbf15a4a9	-0.58454376

conv.0.kernels.3.weight f4 [4, 1, 7, 7]
0	0x3ee10173	0.43946418
1	0x3d44d925	0.048058648
2	0xbeb09662	-0.34489733
3	0x3dd30f79	0.103056855
4	0xbee602cd	-0.44924012
5	0xbe06a743	-0.13149743
6	0x3dba58d8	0.09098977
7	0x3dc3bc5d	0.09557412
8	0xbd4cbadd	-0.049982894
9	0xbdb558d1	-0.08854831
10	0xbf4b961d	-0.7952593
11	0x3ebd3f93	0.36962566
12	0x3d4e1fdc	0.050323352
13	0xbd7f6d53	-0.06236012
14	0x3e738e8c	0.23784846
15	0xbd8af226	-0.067844674
16	0x3e5ef8a7	0.21774541
17	0xbe44be63	-0.19213252
18	0xbd935861	-0.07194591
19	0x3f4188c4	0.7559931
20	0x3e05ecad	0.13078566
21	0x3c83e897	0.016102118
22	0xbca554fb	-0.020182123
23	0x3ebaccc6	0.36484355
24	0xbe7239dd	-0.23654886
25	0x3d804d82	0.062647834
26	0xbe850642	-0.25981337
27	0xbf2fa774	-0.6861489
28	0x3cd8b7be	0.026454803
29	0xbeafac19	-0.34310988
30	0xbde3dd50	-0.111261964
31	0x3d9d31f9	0.07675547
32	0xbe00cd73	-0.12578373
33	0x3ec908cf	0.39264533
34	0xbf3bbc49	-0.73334175
35	0xbec3e45e	-0.38260168
36	0x3dcfce21	0.10146738
37	0xbc5d875b	-0.013521041
38	0x3da07bab	0.07836088
39	0x3dfb424c	0.122685045
40	0xbf11f6d5	-0.5701726
41	0x3d25e29b	0.04049931
42	0xbebb7946	-0.36615962
43	0x3ee2aba1	0.44271567
44	0x3ea000cf	0.31250617
45	0x3cac507b	0.02103447
46	0x3f493abb	0.7860524
47	0xbf6c137e	-0.9221724
48	0x3e7ed0c1	0.24884321
49	0x3e4ab196	0.19794306
50	0xbe40a3f3	-0.18812542
51	0x3d8bccc2	0.06826164
52	0xbdd1e3d9	-0.102485366
53	0x3be38ccf	0.006944276
54	0xbe0c2382	-0.1368542
55	0x3d7991da	0.06093011
56	0xbe3c20af	-0.18371843
57	0x3d4fce3f	0.0507338
58	0x3dc8ef20	0.098112345
59	0xbe526020	-0.20544481
60	0x3da6d3c8	0.08145863
61	0xbd558255	-0.052126247
62	0xbe1ccd20	-0.15312624
63	0x3c414fa2	0.011798771
64	0xbe460050	-0.19336057
65	0x3e1f4845	0.15554912
66	0xbcbd2ca2	-0.023092572
67	0xbe796fef	-0.24359106
68	0x3de052d1	0.10953296
69	0x3d174701	0.03693295
70	0xbe10abf2	-0.14128092
71	0x3cdfe719	0.027331876
72	0x3cafcbc0	0.02145946
73	0x3dcd92d8	0.10037774
74	0xbd8cbdc6	-0.06872134
75	0xbd274b0b	-0.04084305
76	0x3e245970	0.16049743
77	0xbe687b8a	-0.22703376
78	0x3d436411	0.047702853
79	0xbda2b1e9	-0.0794409
80	0xbe647a64	-0.22312313
81	0x3e89e801	0.26934817
82	0xbecba431	-0.39773706
83	0x3e01a898	0.1266197
84	0xbe81b387	-0.2533228
85	0x3eae3f74	0.34032786
86	0xbf0c5fd7	-0.5483374
87	0x3d2f34cd	0.042774964
88	0x3da35ff8	0.07977289
89	0xbea6f843	-0.32611284
90	0xbea91e3f	-0.33030888
91	0xbebdae97	-0.37047264
92	0x3d9967fc	0.074905366
93	0xbd386e2e	-0.04502695
94	0xbe1758ce	-0.1477997
95	0xbb9dbcf0	-0.004813783
96	0x3eb28cb8	0.34872985
97	0x3e80c0bf	0.25147054
98	0xbf8760c0	-1.0576401
99	0xbe4ae5f6	-0.19814286
100	0xbf385885	-0.7201007
101	0x3e0e3506	0.13887414
102	0xbec5b3f0	-0.38613844
103	0xbec5911f	-0.3858728
104	0x3f43f2d1	0.76542383
105	0xbf128f6c	-0.57250094
106	0xbf01e503	-0.5074007
107	0x3d0fd4c8	0.035115033
108	0xbea3ecdc	-0.32016647
109	0xbec52589	-0.385052
110	0xbf8345a7	-1.0255631
111	0x3efb51d0	0.49085855
112	0xbf19e600	-0.6011658
113	0xbf62de1a	-0.8862015
114	0xbf193252	-0.5984241
115	0xbe816ee4	-0.25279915
116	0xbeacb50b	-0.33731875
117	0xbe8d99a2	-0.27656275
118	0xbe759f47	-0.2398654
119	0xbe025399	-0.12727202
120	0xbe508339	-0.20362557
121	0xbe9c97e6	-0.3058464
122	0x4098a46e	4.770072
123	0xbec00199	-0.3750122
124	0xbd53ff0e	-0.05175691
125	0xbf6d58dc	-0.92713714
126	0xbf6b05be	-0.91805637
127	0xbf26cc75	-0.65155727
128	0xbdea8478	-0.11451048
129	0xbef0eb7e	-0.47054666
130	0xbe35dac7	-0.17759238
131	0xbea8df33	-0.32982787
132	0xbdf17b3c	-0.11791083
133	0x3ce7e1c9	0.028305905
134	0xbed59bd9	-0.41720465
135	0xbeb7ed57	-0.35923263
136	0xbd86055a	-0.065439895
137	0xbf20faae	-0.62882507
138	0x3ecab09d	0.3958787
139	0xbf35e21c	-0.7104814
140	0xbf30780a	-0.68933165
141	0xbf12cfac	-0.5734813
142	0xbdbf36b9	-0.093366094
143	0xbdc882ca	-0.09790571
144	0xbf27a102	-0.65480053
145	0x3e9eb019	0.30993727
146	0xbb28def8	-0.0025767665
147	0xbcb2cd23	-0.021826332
148	0x3e20e677	0.15712915
149	0x3f17eb2a	0.59343207
150	0x3da556d9	0.080732055
151	0x3dbaa404	0.09113315
152	0xbf68547b	-0.90753907
153	0xbf622a11	-0.8834544
154	0x3c3badde	0.011455027
155	0x3edca916	0.43097752
156	0xbe4c2b05	-0.19938286
157	0xbe4285c5	-0.18996342
158	0x3edab69f	0.42717454
159	0xbd6521ab	-0.05594031
160	0x3ec44087	0.3833048
161	0x3d847897	0.06468313
162	0x3e020c63	0.12700038
163	0xbe34f0ba	-0.17669955
164	0xbd9ea9d1	-0.07747234
165	0x3e5496df	0.20760678
166	0xbee2af62	-0.4427443
167	0x3f14c94b	0.5811965
168	0xbfaf0314	-1.3672814
169	0xbe36605e	-0.17810199
170	0x3e71d7c0	0.23617458
171	0xbdea55c5	-0.114421405
172	0xbc7bd867	-0.015371419
173	0x3e1ec808	0.15505993
174	0xbd4786c3	-0.048712503
175	0x3bce4208	0.0062944926
176	0x3ed1d851	0.4098535
177	0xbeba00a6	-0.3632862
178	0x3cecc0b0	0.028900474
179	0xbd126b5b	-0.035746913
180	0xbf381541	-0.7190743
181	0x3da7b61a	0.0818903
182	0x3ddedabe	0.108815655
183	0xbe814081	-0.25244525
184	0xbe502b8e	-0.20329115
185	0x3dfd8ce0	0.123803854
186	0x3e316f13	0.17327528
187	0x3eb91fd0	0.36157084
188	0x3bbb6c55	0.0057197013
189	0x3f1e6ae4	0.6188185
190	0xbcef1cd3	-0.02918855
191	0xbefba804	-0.49151623
192	0x3ebe7fe1	0.3720694
193	0xbf26cb0f	-0.6515359
194	0x3c91757f	0.017756222
195	0xbec5b5a5	-0.38615146

conv.0.kernels.3.bias f4 [4]
0	0xbf274241	-0.6533547
1	0x3faf7884	1.3708653
2	0xbe878425	-0.26468006
3	0xbf15a4a9	-0.58454376

conv.0.kernels.4.weight f4 [4, 1, 9, 9]
0	0x3e43a7f3	0.19107036
1	0x3e7baf71	0.24578644
2	0x3eee378a	0.46526748
3	0xbe5b7e54	-0.21434909
4	0x3ea541da	0.32276803
5	0xbead45da	-0.33842355
6	0xbe884d87	-0.2662165
7	0xbdafe2d6	-0.085881874
8	0x3efe256f	0.49637935
9	0x3f90f453	1.1324562
10	0x3ead0b10	0.33797503
11	0xbdbe8087	-0.093018584
12	0xbe87612a	-0.26441318
13	0x3c80b49b	0.01571112
14	0xbf1bd6fe	-0.6087493
15	0xbe659018	-0.22418249
16	0x3d841400	0.06449127
17	0x3d1239aa	0.035699524
18	0xbe42d735	-0.19027407
19	0x3e4afdbe	0.19823357
20	0xbdf7b32e	-0.12094723
21	0x3dd3acdf	0.10335707
22	0xbec842bb	-0.3911341
23	0x3ec6143e	0.3868732
24	0x3dc20129	0.094728775
25	0xbed66e0a	-0.41880828
26	0x3edc148c	0.42984426
27	0xbc9387ef	-0.018009154
28	0x3e86f1ab	0.26356253
29	0xbe7cbf86	-0.24682435
30	0x3e2e502a	0.17022768
31	0xbd7696bb	-0.06020234
32	0xbe2de9dd	-0.16983743
33	0x3f396b76	0.724296
34	0x3e074683	0.13210492
35	0x3e35246c	0.17689675
36	0x3dd45b22	0.10368945
37	0xbc4e93ec	-0.0126085095
38	0xbe3bf8f0	-0.18356681
39	0x3e3e57e4	0.18588215
40	0xbe3e93bb	-0.18611042
41	0x3e27563d	0.16341491
42	0xbe118f6a	-0.14214864
43	0xbf3cc44c	-0.73737025
44	0xbebed83b	-0.37274346
45	0xbf38f371	-0.7224646
46	0x3dba8d09	0.091089316
47	0xbe6ac479	-0.22926511
48	0x3c0e8e35	0.008700897
49	0x3e1aaf84	0.15106016
50	0xbd9964fa	-0.07489963
51	0x3ee985a9	0.45609787
52	0xbf1c53c1	-0.610653
53	0x3e0740ad	0.13208266
54	0xc07cdeec	-3.951106
55	0xbef1c979	-0.47224024
56	0x3d11910f	0.03553873
57	0xbe2332ca	-0.15937343
58	0xbd5fccb5	-0.054638583
59	0x3cdcabca	0.026937384
60	0xbf25117c	-0.64479804
61	0xbdffc0b4	-0.12487927
62	0x3e3a4a3d	0.18192382
63	0xbedde727	-0.43340418
64	0xbde574b2	-0.112038985
65	0x3ed247b0	0.41070318
66	0xbcb4dae9	-0.02207704
67	0x3d3fef9f	0.04685938
68	0x3f27fc71	0.6561957
69	0xbf149fd0	-0.58056355
70	0x3e1c6156	0.15271506
71	0x3f7c2fc6	0.98510396
72	0x3e8e2a4e	0.2776665
73	0x3eacd843	0.33758745
74	0xbdf0acb4	-0.117516905
75	0xbd8f32ad	-0.069920875
76	0x3eb51b50	0.353724
77	0xbdd3721b	-0.10324498
78	0xbe75cb37	-0.24003302
79	0x3f55272d	0.832629
80	0xc093c990	-4.618355
81	0x3edc1fa8	0.42992902
82	0xbe0e076f	-0.13870023
83	0x3e3a1765	0.18172987
84	0x3cdcdf0f	0.026961831
85	0xbef5af24	-0.47985184
86	0xbc1b46a6	-0.009477293
87	0x3ebc5fca	0.3679183
88	0x3e602240	0.21888065
89	0x3f7fed83	0.9997179
90	0xbe9d1a90	-0.30684328
91	0x3e47f36f	0.19526456
92	0x3d0f8a2a	0.035043873
93	0x3e32d03f	0.17462252
94	0xbe29e3b2	-0.16590765
95	0x3b61dff6	0.0034465767
96	0xbd4810d6	-0.04884418
97	0x3e122bbb	0.14274494
98	0x3eb9ff11	0.36327413
99	0xbc51c190	-0.012802497
100	0x3e2687df	0.16262768
101	0x3ded07ae	0.115737304
102	0xbdbcefa4	-0.09225395
103	0xbe461577	-0.19344126
104	0xbddbcd7b	-0.10732552
105	0xbd3e5edf	-0.046477195
106	0x3e022a9b	0.12711565
107	0x3d2c62c6	0.042086385
108	0x3d402da3	0.046918523
109	0x3d05d9f6	0.032678567
110	0xbdeb3eed	-0.114866115
111	0xbd76d8af	-0.06026524
112	0xbddafb7f	-0.106925
113	0xbd874616	-0.06605165
114	0x3d368eee	0.044569902
115	0x3e843999	0.25825194
116	0xbe87952a	-0.2648099
117	0xbd884c2d	-0.066551544
118	0xbd9ff08e	-0.07809554
119	0x3e1cf395	0.15327294
120	0xbc6e1c79	-0.014533156
121	0x3e4f1647	0.20223342
122	0xbe5c3419	-0.21504249
123	0xbc9f99b1	-0.019482465
124	0x3e6b7d64	0.22997051
125	0xbe9a8f1b	-0.30187306
126	0x3dc6affc	0.09701535
127	0xbebac9f9	-0.36482218
128	0x3d481247	0.048845556
129	0x3d6aad65	0.05729427
130	0xbd9bf6aa	-0.07615407
131	0x3d308e52	0.043104477
132	0xbeab1d92	-0.33420998
133	0x3c87d978	0.01658319
134	0xbeb2c619	-0.34916762
135	0x3f160ec4	0.5861628
136	0xbe8b4379	-0.27199915
137	0x3e9a61ab	0.3015264
138	0xbe9c5495	-0.3053328
139	0x3d18ca2b	0.037302177
140	0x3e905b52	0.28194672
141	0xbe94adbc	-0.290388
142	0x3df16002	0.1178589
143	0xbeac4d7b	-0.33652863
144	0x3f0f8e9f	0.56077
145	0xbe991405	-0.29898086
146	0x3db2e278	0.08734602
147	0xbd2ceb3e	-0.042216532
148	0xbb37383f	-0.002795711
149	0x3e112522	0.14174321
150	0x3e897618	0.2684791
151	0x3e7273d2	0.23676994
152	0x3e87ca01	0.26521304
153	0xbf083fe8	-0.53222513
154	0x3f0e8197	0.5566649
155	0xbe827987	-0.25483343
156	0xbe033163	-0.12811808
157	0xbd87c475	-0.06629268
158	0x3d2953b2	0.041339584
159	0xbf0d5a78	-0.5521617
160	0x3e243d20	0.16038942
161	0x3f8ec710	1.1154499
162	0xbf397ecf	-0.7245912
163	0xbf963e3a	-1.173774
164	0xbf63c90d	-0.88978654
165	0xbf106abe	-0.56412876
166	0xbf1970ba	-0.5993763
167	0xbd03f471	-0.03221554
168	0x3f67de44	0.90573525
169	0xbe942f92	-0.28942543
170	0xbe1fce47	-0.15606032
171	0xc0a8b052	-5.2715235
172	0xbf834ce7	-1.0257844
173	0xbea515e6	-0.3224327
174	0xbf17a275	-0.59232265
175	0x3d56d99c	0.052453622
176	0xbea60ae4	-0.32430184
177	0xbee72cfc	-0.45151508
178	0x3f3cfd35	0.73823863
179	0xbf2db111	-0.67848307
180	0xc01287b2	-2.2895322
181	0xbf398f33	-0.7248413
182	0xbed0151b	-0.40641102
183	0x3dd60291	0.10449708
184	0xbe7e0497	-0.24806438
185	0xbe8913fa	-0.26773053
186	0xbf805090	-1.0024586
187	0x3f1a01aa	0.6015879
188	0x3ea3e8ef	0.32013652
189	0xbeeae05c	-0.45874298
190	0xbf13595a	-0.57558215
191	0xbf8c8ac6	-1.097985
192	0xbf1e0812	-0.61731064
193	0xbea043f9	-0.3130186
194	0xbf106e4f	-0.5641832
195	0xbef9f325	-0.48818317
196	0xbe0a7de4	-0.13524586
197	0xbd5e469d	-0.05426656
198	0xbf2d24c8	-0.6763425
199	0xbea59b0d	-0.32344857
200	0xbd781e53	-0.060575794
201	0xbe40f14e	-0.1884205
202	0x40999ffa	4.8007784
203	0xbeb7c0e5	-0.35889354
204	0xbe49b146	-0.1969653
205	0xbf80563b	-1.0026315
206	0xbfd66753	-1.6750282
207	0xbce4f942	-0.027950887
208	0xbf683c85	-0.90717345
209	0xbf5ae7b1	-0.85509783
210	0xbd8fe9d9	-0.07027025
211	0xbea61eea	-0.3244546
212	0x3db9dfcd	0.0907589
213	0xbe947d63	-0.29001912
214	0xbe76bd5b	-0.24095671
215	0xbf136563	-0.5757658
216	0x3d9f78c4	0.07786706
217	0x3e269bc8	0.16270363
218	0xbeccce23	-0.4000102
219	0xbeeed37e	-0.4664573
220	0xbe2f0e28	-0.17095244
221	0xbf3320d8	-0.6997199
222	0x3ebfd2fe	0.37465662
223	0xbf4ae7d1	-0.79259974
224	0xbf40b722	-0.7527944
225	0x3f76104e	0.9611863
226	0xbefcc7e3	-0.4937125
227	0xbf29b478	-0.66291
228	0xbeb7757d	-0.35831824
229	0x3d29c72e	0.04144972
230	0xbf4c6cbd	-0.7985342
231	0x3ee56bc5	0.44808784
232	0x3a148415	0.0005665434
233	0xbe2ab6ca	-0.16671291
234	0xbf8d8310	-1.1055622
235	0xbf2fe577	-0.6870951
236	0xbeb7ac77	-0.35873768
237	0xbeb14777	-0.34624836
238	0xbe915d5b	-0.28391537
239	0xbe9f620b	-0.31129488
240	0xbf20a5a0	-0.62752724
241	0x3ee6c55f	0.45072457
242	0xbf9b3562	-1.2125666
243	0xc06ecb87	-3.7311723
244	0xbdc3af5a	-0.0955493
245	0x3e90390b	0.2816852
246	0x3e2e89bb	0.17044728
247	0xbd5ba154	-0.05362065
248	0x3ecb815f	0.3974714
249	0xbf6eab8a	-0.932305
250	0x3f9a0185	1.2031714
251	0xbed24f1c	-0.4107598
252	0xbec89cad	-0.39182034
253	0x3caa9459	0.02082269
254	0x3e331926	0.17490062
255	0x3ee23a25	0.44184986

conv.0.kernels.4.bias f4 [4]
0	0xbf274241	-0.6533547
1	0x3faf7884	1.3708653
2	0xbe878425	-0.26468006
3	0xbf15a4a9	-0.58454376

conv.0.kernels.5.weight f4 [4, 1, 11, 11]
0	0x3d07db9b	0.033168416
1	0xc04c17cc	-3.1889524
2	0x3f26b34b	0.6511733
3	0x3daa3440	0.08310747
4	0xbe71f204	-0.23627478
5	0xbf05b9ac	-0.5223644
6	0x3e7a8952	0.24466446
7	0xbeabe247	-0.33571073
8	0x3e986f00	0.29772186
9	0xc05f7845	-3.4917157
10	0xbd4fa1db	-0.050691467
11	0xc04a2836	-3.1587043
12	0x3e738bf5	0.23783858
13	0x3ec37b6c	0.381801
14	0x3efad4ff	0.48990628
15	0xbe383504	-0.17988974
16	0x3e273c4b	0.16331594
17	0xbef46db2	-0.4773994
18	0xbeb2f70b	-0.34954104
19	0x3d8465fe	0.06464766
20	0x3eb71f2b	0.35765967
21	0x3ed4307a	0.41443235
22	0xbf87be21	-1.0604898
23	0x3f68c36c	0.9092319
24	0x3ef067ca	0.46954185
25	0x3d200aff	0.039072987
26	0xbe9758ee	-0.29560035
27	0x3d3c3780	0.045951366
28	0xbf07ab39	-0.5299564
29	0xbe9a2dd5	-0.30113092
30	0x3af533e1	0.0018707478
31	0x3cfdc1c5	0.030976186
32	0x3f6a1e95	0.91452914
33	0xbede06f8	-0.43364692
34	0xbe94b016	-0.29040593
35	0x3e69a897	0.22818218
36	0x3ca3e289	0.020005481
37	0x3e41d689	0.18929495
38	0xbee600c4	-0.4492246
39	0x3e95ce60	0.29259014
40	0x3de0e853	0.10981812
41	0xbe9ce35b	-0.30642208
42	0x3f0116b1	0.5042525
43	0x3e809d0a	0.2511981
44	0xbe47cb78	-0.19511211
45	0xbcefd04c	-0.029274128
46	0x3eb24f4a	0.34826118
47	0xbe44e4a6	-0.19227847
48	0x3e6f7218	0.23383367
49	0xbe17110a	-0.14752594
50	0xbe4978c5	-0.19674976
51	0x3f3ea894	0.7447598
52	0x3e820caa	0.25400287
53	0x3e4166de	0.18886897
54	0xbf2ee215	-0.68313724
55	0x3f0cecd7	0.5504889
56	0x3d538cd0	0.05164796
57	0x3ad8b1d1	0.0016532486
58	0xbe04b363	-0.12959056
59	0x3e115f2b	0.1419646
60	0xbe2626b1	-0.16225697
61	0x3e23d086	0.15997514
62	0xbe8f691e	-0.28009886
63	0xbf3d1f27	-0.7387566
64	0xbede8c98	-0.4346664
65	0xbe9ec923	-0.3101283
66	0x3e2e01d7	0.1699289
67	0xbf38598a	-0.72011626
68	0x3d6f358a	0.05840067
69	0xbe99a972	-0.3001209
70	0xbe83e168	-0.2575791
71	0x3e3e8330	0.18604732
72	0xbcd3bb9a	-0.025846291
73	0x3f13cc38	0.5773349
74	0xbf1c9c9d	-0.6117647
75	0x3c2a57d0	0.010396913
76	0xbf24bef1	-0.64353853
77	0xbfb02e4f	-1.3764132
78	0xc0838bee	-4.1108313
79	0xbef7b22c	-0.48378122
80	0x3d2dd453	0.042438816
81	0xbe81d557	-0.25358078
82	0x3d1c4966	0.038155936
83	0x3db961eb	0.090518795
84	0xbf063d84	-0.52437615
85	0xbca3b4b9	-0.019983636
86	0x3e98631e	0.2976312
87	0x3fa09c4b	1.2547697
88	0x3c27e42b	0.010247271
89	0xbf0d660f	-0.55233854
90	0xbe377062	-0.17913964
91	0x3e457651	0.19283415
92	0x3e2ddabc	0.16977972
93	0x3cddcef2	0.027076218
94	0x3f4fe8d1	0.81214625
95	0xbf236617	-0.6382765
96	0x3ea5846d	0.32327595
97	0x3f976561	1.1827813
98	0xc0916da3	-4.5446334
99	0xbd44606d	-0.04794352
100	0x3ea18559	0.3154705
101	0x3ebf8ea1	0.37413505
102	0xbe4827e7	-0.19546472
103	0xbe09bf11	-0.13451792
104	0x3f08a1bf	0.53371805
105	0x3d642098	0.055695146
106	0xbe05e450	-0.13075376
107	0x3f288884	0.65833306
108	0xc0938675	-4.610163
109	0x3e325da3	0.17418532
110	0xba293615	-0.0006454897
111	0xc00fa398	-2.24436
112	0x3e7290e7	0.23688088
113	0x3dcfe3bd	0.101508595
114	0x3e936b02	0.28792578
115	0xbe2c7941	-0.1684313
116	0xbe0a92fd	-0.13532634
117	0xbe18e126	-0.14929637
118	0x3d7ba943	0.061440717
119	0x3ffa4886	1.9553382
120	0x3dce266f	0.100659244
121	0x3dfcdc21	0.12346674
122	0xbf29b44b	-0.6629073
123	0x3f32b314	0.698045
124	0xbde67ad8	-0.11253899
125	0xbe86c5eb	-0.26322874
126	0x3c21c369	0.00987325
127	0x3e12079d	0.14260717
128	0xbc221ee2	-0.009895058
129	0x3ecd678b	0.4011806
130	0xc02127d1	-2.5180552
131	0xbaa562cb	-0.0012617944
132	0x3f118b70	0.5685339
133	0x3e8914ff	0.2677383
134	0xbe000990	-0.12503648
135	0x3e55d2a7	0.20881139
136	0xbd9c5170	-0.076327205
137	0xbe9d8204	-0.30763257
138	0x3d264c22	0.04059995
139	0x3ec34bd8	0.38143802
140	0x3e15b46c	0.14619607
141	0x3f786c46	0.9704021
142	0x3e40ee61	0.18840934
143	0xbdc87d86	-0.09789567
144	0xbe9006a8	-0.28130078
145	0x3e43c0dc	0.19116539
146	0xbe4980e2	-0.19678071
147	0x3dfe0d51	0.12404884
148	0xbdd2368e	-0.10264312
149	0x3db8f550	0.09031165
150	0xbe1780fa	-0.14795294
151	0x3da0b149	0.078463145
152	0x3ea6e152	0.3259378
153	0xbeaab0b0	-0.33337927
154	0xbe8a9680	-0.27067947
155	0x3dced26b	0.10098728
156	0xbb8ce0c5	-0.0042992556
157	0x3d89a05d	0.0672004
158	0x3c0eed8f	0.008723631
159	0xbea76ad6	-0.32698697
160	0xbe365cca	-0.17808834
161	0x3c8ef0bd	0.017448777
162	0x3cfaaf06	0.030601036
163	0xbdb7eccf	-0.089807145
164	0xbd508176	-0.050904714
165	0x3e99e06e	0.3005404
166	0xbdd1c897	-0.102433376
167	0xbd55dd39	-0.052212927
168	0xbc84c21a	-0.016205836
169	0x3db8d4d5	0.090249695
170	0xbdddc996	-0.10829465
171	0xbdb5931e	-0.08865951
172	0x3d3e124e	0.046404175
173	0x3e6fecbf	0.23430155
174	0xbec4c00b	-0.38427767
175	0x3e2044ed	0.15651293
176	0x3dd08ffe	0.10183714
177	0x3ca51a92	0.020154271
178	0x3d326b4b	0.043559354
179	0x3db71020	0.089386225
180	0xbd1d4ef0	-0.03840536
181	0x3d7e64aa	0.06210772
182	0xbe9adf4e	-0.30248493
183	0x3c8a1104	0.016853817
184	0x3eb6ed89	0.357281
185	0xbeb915d6	-0.36149472
186	0x3f17c74a	0.59288466
187	0x3de5eacd	0.11226425
188	0x3d972267	0.073796086
189	0xbe788501	-0.24269487
190	0xbdb956a8	-0.090497315
191	0x3d3b715c	0.045762405
192	0xbe478b6c	-0.19486779
193	0xbc9ac1bc	-0.018891208
194	0xbea3232d	-0.31862774
195	0x3d66b038	0.0563204
196	0xbeac3dd7	-0.3364093
197	0x3f15647d	0.5835646
198	0x3e20c4b5	0.15700038
199	0x3eef469c	0.46733558
200	0xbe597d51	-0.2123921
201	0x3ee47633	0.4462143
202	0xbdee81d1	-0.11645854
203	0x3d908ad0	0.070577264
204	0x3e4d94ae	0.20076248
205	0xbe95e014	-0.2927252
206	0xbe6fefd8	-0.23431337
207	0xbe1ae239	-0.1512536
208	0xbe4d8316	-0.20069537
209	0x3d85be90	0.065304875
210	0x3ee7bb3b	0.45260033
211	0xbe7cdb11	-0.24692942
212	0x3e0a3899	0.13498153
213	0x3d0a3256	0.03373941
214	0xbd649c81	-0.055813316
215	0x3dae755b	0.085184775
216	0x3e322776	0.17397866
217	0x3ea999cd	0.33125153
218	0x3eb849af	0.35993716
219	0xc01945f8	-2.3948956
220	0x400dcbee	2.2155719
221	0xbef513f5	-0.47866789
222	0x3f22ab9d	0.6354311
223	0xbe92e70a	-0.28691894
224	0xbdefc38c	-0.117072195
225	0xbe7f08fc	-0.24905771
226	0xbe17541e	-0.14778182
227	0xbee83cbc	-0.45358837
228	0x3df7796d	0.12083707
229	0x3f8a1eed	1.0790688
230	0x400a7861	2.1635973
231	0xbde80146	-0.11328368
232	0x3f2da780	0.6783371
233	0xbfaae357	-1.3350629
234	0xbe2400d8	-0.16015947
235	0xbdbca64c	-0.09211406
236	0x3e0d728c	0.13813227
237	0x3d001ec0	0.031279325
238	0x3ec33e32	0.3813339
239	0x3f097edd	0.53709203
240	0xc0b7a087	-5.7383456
241	0xbd2e1639	-0.042501662
242	0x3d9560be	0.07293843
243	0xbf029957	-0.5101523
244	0xc0744e81	-3.8172915
245	0xbe6d7bc7	-0.23191749
246	0xbe08ccae	-0.13359329
247	0xbf840a2d	-1.0315605
248	0xbf3573b8	-0.708797
249	0xbf4476c6	-0.76743734
250	0x3eb26bf7	0.34847996
251	0xc1d26a8e	-26.302029
252	0xbd6d15b3	-0.057882022
253	0xc19907a2	-19.128727
254	0xbf3cbf8f	-0.73729795
255	0xbf9bec28	-1.2181444

conv.0.kernels.5.bias f4 [4]
0	0xbf274241	-0.6533547
1	0x3faf7884	1.3708653
2	0xbe878425	-0.26468006
3	0xbf15a4a9	-0.58454376

conv.0.kernels.6.weight f4 [4, 1, 13, 13]
0	0x3d978941	0.07399226
1	0xbc95649c	-0.01823645
2	0x3b2a2dcd	0.002596724
3	0x3f700f8c	0.9377372
4	0xbe9015b6	-0.28141564
5	0x3f21b840	0.6317177
6	0xbf436e67	-0.76340336
7	0x3f77a71c	0.96739364
8	0xbed91692	-0.42400032
9	0x40122e57	2.2840784
10	0xbc7cef0c	-0.015437853
11	0x3da57d38	0.08080524
12	0xbce489e5	-0.027897784
13	0x3d3fe869	0.046852503
14	0x3e11cdde	0.14238688
15	0xc04e6b6b	-3.2253063
16	0x3f2acc4f	0.66718
17	0x3d8a06bc	0.06739566
18	0xbe6864a7	-0.22694646
19	0xbef09d73	-0.46995124
20	0x3e85c434	0.26126254
21	0xbe6ff385	-0.23432739
22	0x3ef639c7	0.48090956
23	0xc0626ef3	-3.5380218
24	0x3ca50fda	0.02014916
25	0xbe11163a	-0.14168635
26	0xbfd777d2	-1.6833441
27	0xc04bd8ed	-3.185115
28	0x3e64daa0	0.22349024
29	0x3e70f3fc	0.23530573
30	0x3f00677a	0.5015789
31	0xbe66a6b8	-0.22524536
32	0x3e87fe32	0.26561123
33	0xbec31fb0	-0.38110113
34	0xbeb2364f	-0.3480706
35	0xbd9ac816	-0.075576946
36	0x3ed9cfe2	0.42541414
37	0x3e6783ee	0.22608921
38	0xbfdd437a	-1.7286217
39	0x3ffd2e85	1.9779822
40	0xbf6dcd3c	-0.9289129
41	0x3f783143	0.9695017
42	0x3f01fd07	0.50776714
43	0xbd5782c7	-0.052614953
44	0xbe7d1398	-0.24714506
45	0xbcda2827	-0.026630474
46	0xbf08ca6e	-0.53433883
47	0xbe93b9db	-0.28852734
48	0x3da6ad32	0.08138503
49	0x3d9c1946	0.07622008
50	0x3f4a37eb	0.78991574
51	0x3e8f9712	0.28044945
52	0xbf4cba99	-0.79972225
53	0xbeebdebf	-0.4606838
54	0xbe6065ca	-0.2191383
55	0x3e3681ba	0.17822924
56	0x3de40f12	0.11135687
57	0x3e43bb35	0.19114383
58	0xbefdada0	-0.49546528
59	0x3edfc43c	0.43704402
60	0x3e1fe381	0.1561413
61	0xbe70bf57	-0.2351049
62	0x3ef7cb69	0.48397377
63	0x3e14c3a4	0.14527756
64	0xbf10391c	-0.5633714
65	0x3f41eb83	0.7574999
66	0xbd9cbd29	-0.07653267
67	0xbd1fd287	-0.039019134
68	0x3e4c99ec	0.19980592
69	0xbe73c32a	-0.23804918
70	0x3e90d3e2	0.28286654
71	0xbdc1dc72	-0.09465875
72	0xbe72e8e6	-0.23721656
73	0x3f2b4fe2	0.66918766
74	0x3dff8637	0.12476771
75	0x3e5016e1	0.20321228
76	0xbf2b01fe	-0.66799915
77	0x3fee8223	1.8633465
78	0xbf104cf2	-0.5636741
79	0x3f17caac	0.5929363
80	0x3de9ad4f	0.11410009
81	0x3d2e057d	0.042485703
82	0xbe9fbab3	-0.31197128
83	0x3e4b776d	0.19869776
84	0xbe5a0a26	-0.21292934
85	0x3e23fcf3	0.16014461
86	0xbe65ed73	-0.22453861
87	0xbf4c00a5	-0.79688483
88	0xbef153c5	-0.47134224
89	0xbe3b6a63	-0.18302302
90	0x3efc7393	0.49306926
91	0x3e9ec23f	0.31007573
92	0x3dc5f31b	0.09665509
93	0xbf2745fe	-0.65341175
94	0x3cefd9be	0.029278632
95	0xbed0bb52	-0.40767914
96	0xbe61d4eb	-0.22053878
97	0x3e02d462	0.1277633
98	0xbb2f042c	-0.0026705367
99	0x3ee02cca	0.4378417
100	0xbf257ed9	-0.6464668
101	0x3e0971c0	0.13422298
102	0xbf0dcabb	-0.5538747
103	0x3f069e34	0.5258515
104	0xc00d888a	-2.2114587
105	0xbfa5ad1b	-1.2943453
106	0xc08608e1	-4.188584
107	0xbf11a069	-0.5688539
108	0x3d96268e	0.073315725
109	0xbe534581	-0.20631982
110	0xbc9d3552	-0.019190464
111	0x3d9a057d	0.07520578
112	0xbf026467	-0.5093445
113	0x3dcc1041	0.09964038
114	0x3e330315	0.17481644
115	0x3fa9d52f	1.3268183
116	0x3f5a2f22	0.8522817
117	0xbf8bd2bd	-1.0923687
118	0x3d0e7daa	0.03478781
119	0xbf0d7b43	-0.5526621
120	0xbe127bed	-0.14305086
121	0x3e8ee1b7	0.27906582
122	0x3bf32c69	0.0074210656
123	0x3c140144	0.009033505
124	0x3f3f8555	0.74812824
125	0xbf1dfd63	-0.6171476
126	0x3e9613ef	0.29312083
127	0x3f8b4991	1.0881826
128	0xc096b2ae	-4.7093115
129	0x3f1b34d6	0.60627496
130	0xbf129815	-0.5726331
131	0x3c845567	0.016154004
132	0x3e4901c3	0.19629578
133	0x3e98671f	0.29766175
134	0xbe2bef64	-0.16790539
135	0xbe2af0eb	-0.16693465
136	0x3f10387e	0.563362
137	0xbd7a5acf	-0.061121758
138	0xbe94333f	-0.28945348
139	0x3f296f83	0.6618578
140	0xc092c787	-4.5868564
141	0x3de8f34c	0.1137453
142	0xbd22aace	-0.039713673
143	0xbd49d345	-0.049273748
144	0x3cafb43c	0.021448247
145	0xc0081942	-2.1265416
146	0x3da8f570	0.082499385
147	0x3df3069c	0.11866495
148	0x3e8694ef	0.26285502
149	0xbe03849b	-0.12843554
150	0xbe7a636c	-0.24451989
151	0xbe09f919	-0.1347393
152	0x3d959aac	0.07304892
153	0x3fecfa8d	1.8513962
154	0x3dd9a0ee	0.10626398
155	0xbd1e0948	-0.03858307
156	0xbde417a9	-0.11137325
157	0x3d73d738	0.05953142
158	0x3cbb47ad	0.022861326
159	0x3f7b1eb1	0.98093706
160	0x3efcd658	0.4938228
161	0xbf9e7350	-1.237894
162	0x3de7e3f5	0.11322776
163	0xbd240339	-0.040042136
164	0x3d5bb361	0.053637866
165	0x3faac7ba	1.3342202
166	0xbc00d1b3	-0.007862496
167	0xbd2bc2ce	-0.041933827
168	0xbd5ea661	-0.05435789
169	0x3c9059c8	0.017620936
170	0xbc6822de	-0.014168469
171	0x3c26fbe4	0.010191891
172	0xbe3688a0	-0.17825556
173	0xbe50e202	-0.20398715
174	0xbed49ece	-0.41527408
175	0xbdb2b228	-0.08725387
176	0x3e4a6b32	0.19767454
177	0xbe6ad1aa	-0.22931543
178	0x3f23dd94	0.64009976
179	0xbc93bef4	-0.01803539
180	0x3d99d241	0.07510806
181	0xbca34ee6	-0.019935083
182	0xbb9e8600	-0.0048377514
183	0xbd13b588	-0.036061794
184	0xbf1bbd43	-0.60835665
185	0x3f213883	0.62976855
186	0xbe4aa5da	-0.1978983
187	0xbe91927c	-0.2843207
188	0xbce8ae58	-0.028403446
189	0x3da58fbe	0.08084057
190	0xbd9124fd	-0.07087133
191	0x3eaf5801	0.3424683
192	0xc0242da4	-2.5652857
193	0xbc8939d0	-0.0167512
194	0x3ddeb569	0.10874445
195	0xbf305cfb	-0.68891877
196	0x3f009b2b	0.5023677
197	0x3ed35880	0.41278458
198	0xbcd663bb	-0.026170602
199	0x3dff0ebf	0.124539845
200	0xbc33a9a9	-0.010965743
201	0xbf0070b2	-0.5017196
202	0x3d4891d5	0.0489672
203	0x3ea56795	0.3230559
204	0x3e42c8db	0.19021933
205	0x3f84569f	1.0338935
206	0x3eb35454	0.35025275
207	0x403c8da7	2.9461458
208	0x3f914263	1.1348385
209	0xbce58e85	-0.02802206
210	0xbea57d09	-0.32321957
211	0x3ea64524	0.32474625
212	0xbe37294e	-0.1788685
213	0x3e333607	0.17501079
214	0xbe6f2a1c	-0.23355907
215	0x3c55235e	0.0130089205
216	0xbdd0993f	-0.101854794
217	0x3dc5cd44	0.09658292
218	0x3e7b1716	0.24520525
219	0xbe8ea8a1	-0.2786303
220	0x3fc73e20	1.5565834
221	0x3f454088	0.7705159
222	0xbea79b50	-0.32735682
223	0xbced6a11	-0.02898124
224	0xbc7bdc5e	-0.015372364
225	0x3d21a43c	0.039463267
226	0xbc917e0d	-0.017760301
227	0xbe893b73	-0.2680317
228	0xbde15bd2	-0.110038415
229	0x3c48b8ac	0.01225106
230	0x3d69640b	0.056980174
231	0xbd4714af	-0.04860371
232	0xbc3a01b8	-0.011352949
233	0x3e9db973	0.3080555
234	0xbf228dd4	-0.6349766
235	0x3e8e59c0	0.2780285
236	0xbe228c3a	-0.15873805
237	0x3c4a8fcb	0.0123633845
238	0x3d96ccc0	0.07363272
239	0x3dfa2db0	0.122157454
240	0xbdfc501c	-0.12319967
241	0x3d9eaf5a	0.077482894
242	0xbd1972b9	-0.037462924
243	0x3e18e6a1	0.14931728
244	0xbe95b1e7	-0.2923729
245	0x3d938a77	0.072041444
246	0xbe9271c3	-0.28602418
247	0xbd9e3ac0	-0.077260494
248	0x3dccc949	0.099993296
249	0xbbb27192	-0.0054456675
250	0xbdfab42a	-0.12241395
251	0x3dc1d745	0.094648875
252	0xbbbf477f	-0.0058373804
253	0x3dab6f7a	0.08370872
254	0xbe674f1e	-0.22588775
255	0xbd9de920	-0.07710481

conv.0.kernels.6.bias f4 [4]
0	0xbf274241	-0.6533547
1	0x3faf7884	1.3708653
2	0xbe878425	-0.26468006
3	0xbf15a4a9	-0.58454376

conv.0.kernels.7.weight f4 [4, 1, 15, 15]
0	0xbd04a5f5	-0.03238483
1	0x3c7391ff	0.014866351
2	0xbd6b1026	-0.057388447
3	0xbc3374dc	-0.010953154
4	0xbf11fb9c	-0.5702455
5	0x3eb1f38c	0.34756124
6	0xbf1bccc4	-0.6085932
7	0x3e332e8c	0.17498225
8	0x3f96cb77	1.1780843
9	0x3ea43b31	0.3207641
10	0xc0427768	-3.038538
11	0xb9b224c2	-0.00033978192
12	0xbdb417ce	-0.08793603
13	0xbd7325ae	-0.059362106
14	0x3cabd494	0.020975389
15	0x3d994ca8	0.07485324
16	0x3d54e7a2	0.051978715
17	0x3bbd142c	0.005770227
18	0xbcf29e1c	-0.029616408
19	0x3f6747eb	0.90344113
20	0xbec4073d	-0.38286772
21	0x3f2128fd	0.6295317
22	0xbf49504c	-0.7863815
23	0x3f746bd1	0.95477015
24	0xbf0fd096	-0.5617765
25	0x400f53f3	2.2394989
26	0xbdc02acf	-0.09383165
27	0xbd1c37ea	-0.03813926
28	0xbdffc2eb	-0.124883495
29	0x3cf92963	0.030415243
30	0x3da091cc	0.078403085
31	0xbceb7bbb	-0.028745523
32	0xbcd64338	-0.0261551
33	0xc04dbe6f	-3.2147481
34	0x3f26c83c	0.65149283
35	0x3d587bd7	0.052852478
36	0xbe242336	-0.16029057
37	0xbf0915c2	-0.53548825
38	0x3ea48c83	0.32138452
39	0xbeae4279	-0.3403509
40	0x3edad8ee	0.4274363
41	0xc05d3e04	-3.4569101
42	0x3d866a86	0.065632865
43	0xbbfed001	-0.007776261
44	0xbd26752b	-0.040639084
45	0x3d490860	0.049080253
46	0xbfd5fb35	-1.6717287
47	0xc043ff20	-3.0624466
48	0x3e74ef16	0.23919329
49	0x3ebd1397	0.36929008
50	0x3f1a4469	0.60260636
51	0xbe175f2f	-0.14782403
52	0x3e9582c3	0.29201326
53	0xbecbb140	-0.3978367
54	0xbeab1076	-0.33410996
55	0xbc22fb87	-0.009947664
56	0x3ec80fa9	0.39074448
57	0x3ea6176f	0.32439753
58	0xbfdbe015	-1.717776
59	0x3d79107b	0.060806733
60	0xbdaebcba	-0.085320905
61	0x3ffcc09c	1.974628
62	0xbf7127c1	-0.94201285
63	0x3f8e9580	1.1139374
64	0x3ee29cee	0.44260353
65	0x3df9c18b	0.121951185
66	0xbe4ce3fd	-0.20008846
67	0xbc48ce74	-0.0122562535
68	0xbf054ef4	-0.520736
69	0xbe75f445	-0.24018963
70	0xbc9a790e	-0.018856551
71	0x3d004d67	0.031323817
72	0x3f698fe2	0.9123517
73	0x3ebb6171	0.3659778
74	0x3d748bf7	0.059703793
75	0xc0b0a121	-5.519669
76	0xbf416bcc	-0.7555511
77	0xbebe66d3	-0.37187824
78	0xbe04a9c4	-0.12955385
79	0x3e81dfd6	0.25366086
80	0xbd4235f3	-0.04741473
81	0x3e253e89	0.16137137
82	0xbf06bc51	-0.526311
83	0x3ec5957d	0.38590613
84	0x3e2769c4	0.1634894
85	0xbebd77ff	-0.37005612
86	0x3f050e58	0.5197501
87	0x3e44e5db	0.19228308
88	0xbf15d943	-0.5853464
89	0x40119c07	2.2751482
90	0xc0659a30	-3.5875359
91	0x3f39930f	0.7249002
92	0xbe5ff656	-0.21871313
93	0xbb81e632	-0.003964209
94	0x3ec24f0c	0.37950933
95	0xbe55d689	-0.2088262
96	0x3db62085	0.08892921
97	0xbe1159ac	-0.14194363
98	0xbd9c47c3	-0.07630875
99	0x3f402a2a	0.7506434
100	0x3da0a6ba	0.078443006
101	0x3e77e99b	0.24210207
102	0xbf30006a	-0.6875063
103	0x3ffb032c	1.9610343
104	0xbe7be2cf	-0.2459824
105	0x3f4f1c43	0.809025
106	0xbf00f0dc	-0.5036752
107	0x3f2fadb2	0.68624413
108	0x3da99aef	0.08281504
109	0x3ae1b209	0.0017219196
110	0xbe3c55e8	-0.18392146
111	0x3e4b66f1	0.19863488
112	0xbe42f4e3	-0.1903873
113	0x3e229c97	0.15880047
114	0xbe91e96a	-0.28498393
115	0xbf34a66f	-0.7056646
116	0xbeceb7fb	-0.4037474
117	0xbe3a754d	-0.18208809
118	0x3f0a1133	0.53932494
119	0xbf161b73	-0.58635634
120	0xc018a647	-2.3851488
121	0x3e88e18e	0.26734585
122	0x3ca185ff	0.019717215
123	0xbf1d204d	-0.6137741
124	0x3dbc1734	0.09184113
125	0xbe95fd3b	-0.29294762
126	0xbd845028	-0.06460601
127	0x3d1c189c	0.038109407
128	0x3d1ddd28	0.03854099
129	0x3f0836f0	0.5320883
130	0xbf299ab5	-0.6625169
131	0x3e051408	0.12995923
132	0xbf198597	-0.59969467
133	0x3f0655b3	0.52474517
134	0xc18b0967	-17.379591
135	0x3f89ca67	1.0764893
136	0xc01141e8	-2.2696476
137	0xbfa3ff9c	-1.2812381
138	0xc086b365	-4.2093987
139	0xbf0f6a59	-0.5602165
140	0x3c170f6e	0.009219987
141	0xbe84e05e	-0.2595243
142	0x3d26fa84	0.040766254
143	0x3dc7440e	0.09729777
144	0xbede8fe6	-0.4346916
145	0xbbe1ac65	-0.006887006
146	0x3e5a3c82	0.21312144
147	0x3fb06f83	1.3784031
148	0x3f4ec4aa	0.80768836
149	0x406c9d69	3.6971076
150	0x3d2f3464	0.042774573
151	0xbf8caaf7	-1.0989674
152	0xbd3ef093	-0.04661615
153	0xbedab028	-0.42712522
154	0xbdd2861b	-0.10279485
155	0x3ec776cd	0.38957825
156	0x3e0cb98b	0.13742654
157	0x3d7b746e	0.061390333
158	0x3f1d38aa	0.6141459
159	0xbf345e0c	-0.70456004
160	0x3e6a2c09	0.2286836
161	0x3fa123f2	1.2589095
162	0xc0970be3	-4.720201
163	0x3f2eb8d2	0.68250763
164	0x3cc49d48	0.024000779
165	0x3bc0471d	0.0058678524
166	0xbf0692f0	-0.5256796
167	0xbda25b2a	-0.079275444
168	0x3eb7d2bc	0.35902965
169	0x3e99e04d	0.3005394
170	0xbe9988db	-0.29987225
171	0xbe229b3b	-0.15879528
172	0x3eebedb0	0.4607978
173	0xbd0a1117	-0.033707704
174	0xbe8d1d01	-0.2756119
175	0x3f2d0ea7	0.6760048
176	0xc0962237	-4.6916766
177	0x3e17ffff	0.14843749
178	0xbd0f0fe5	-0.034927268
179	0xbdc40d8d	-0.09572897
180	0x3d10064a	0.035162248
181	0xbc345042	-0.011005463
182	0xbda5bfc4	-0.08093217
183	0xc00a41ec	-2.1602736
184	0x3e8ed9d1	0.27900556
185	0xbbcd312f	-0.0062619667
186	0x3e96df96	0.29467458
187	0xbe1eb07f	-0.15497015
188	0xbdccaf2a	-0.099943474
189	0xbdeda917	-0.11604517
190	0x3d1e8f26	0.038710736
191	0x3ff95628	1.9479418
192	0xbd520511	-0.051274363
193	0xbd04cc95	-0.032421667
194	0xbad2a7ed	-0.0016071774
195	0xbd7a45b1	-0.06110162
196	0x3d44a042	0.048004396
197	0x3dca3153	0.09872689
198	0x3c2c5463	0.010518166
199	0x3f823c58	1.0174665
200	0x3f0abc10	0.5419321
201	0xbf9d1b9a	-1.2274048
202	0x3dfb014c	0.12256107
203	0x3d283f99	0.041076276
204	0xbd5da5a0	-0.05411303
205	0x3fb7eb5c	1.4368701
206	0x3de41492	0.11136736
207	0xbd36aa00	-0.04459572
208	0x3da2762e	0.07932697
209	0x3cb3a961	0.021931352
210	0xbd37091d	-0.044686425
211	0xbccba732	-0.024859998
212	0xbc07e7af	-0.008294984
213	0x3da29a19	0.07939548
214	0x3e89102c	0.2677015
215	0xbfdd7b7b	-1.7303308
216	0x3e5b2ca4	0.21403748
217	0x3ec00368	0.375026
218	0x3eff13e5	0.49819866
219	0xbe45de1d	-0.1932301
220	0x3dbf67db	0.09345981
221	0xbd4bd1a4	-0.049760476
222	0xbd1808df	-0.037117835
223	0xbc74cb0f	-0.014940991
224	0xbb8fcb88	-0.0043882765
225	0xbc978554	-0.018496193
226	0xbdba1236	-0.09085505
227	0xbd316b1c	-0.043315038
228	0x3d59b06b	0.05314676
229	0xbe9b796b	-0.30366072
230	0xbf38fcaf	-0.72260565
231	0x3ecc1de6	0.3986656
232	0x3e075b2e	0.13218376
233	0xbee159c4	-0.44013798
234	0x3f36ba36	0.71377885
235	0x3fd1dfcb	1.6396421
236	0x3cca0abc	0.024663322
237	0xbc82d165	-0.015968988
238	0xbda9b30e	-0.08286105
239	0xbcfbf385	-0.030755768
240	0x3d1bf2d0	0.03807336
241	0x3caba6b0	0.020953506
242	0x3bbab01f	0.005697265
243	0x3d1962f4	0.037447885
244	0xbe8fff21	-0.28124335
245	0xbdc6c0c2	-0.097047344
246	0xbea8d61e	-0.32975858
247	0xbc437d5a	-0.011931742
248	0x3ea03cf3	0.312965
249	0xbe90695d	-0.28205386
250	0x3f240486	0.640694
251	0x3cd03423	0.025415486
252	0xbc111cca	-0.0088569615
253	0xbd9f6371	-0.07782639
254	0x3cef4bf0	0.029211015
255	0xbd599d6f	-0.053128656

conv.0.kernels.7.bias f4 [4]
0	0xbf274241	-0.6533547
1	0x3faf7884	1.3708653
2	0xbe878425	-0.26468006
3	0xbf15a4a9	-0.58454376

conv.0.kernels.8.weight f4 [4, 1, 17, 17]
0	0xbc4ecd6b	-0.012622218
1	0xbd36b180	-0.04460287
2	0xbbb46a54	-0.0055058394
3	0x3d2fb961	0.0429014
4	0x3b5031fa	0.003176807
5	0x3bbb43ed	0.0057148845
6	0x400e207c	2.2207327
7	0x3bc912ed	0.0061362893
8	0x3feb3857	1.8376569
9	0x3fd6b679	1.6774436
10	0x3f8140c6	1.0097892
11	0x3d08eb28	0.033427387
12	0xbd7093d2	-0.058734722
13	0x3c06d919	0.008230471
14	0xbc154be1	-0.009112329
15	0x3cfb71cf	0.030693917
16	0xbc5ec47d	-0.013596651
17	0xbd0dc673	-0.034613084
18	0x3da73944	0.081652194
19	0x3cc9c800	0.0246315
20	0x3c16421b	0.009171034
21	0x3d504a83	0.05085231
22	0xbf007863	-0.50183696
23	0x3edb028c	0.4277538
24	0xbf221d7e	-0.6332625
25	0x3e8e6ce0	0.2781744
26	0x3faaeba2	1.335316
27	0x3ea26b4e	0.31722492
28	0xc04787d6	-3.1176658
29	0xbc76425d	-0.015030471
30	0x3b5b7472	0.0033486155
31	0xbae76a1e	-0.0017655527
32	0xbd094161	-0.033509616
33	0x3d72020b	0.05908398
34	0x3d08db83	0.033412468
35	0x3cfdc4ad	0.030977571
36	0x3d80a412	0.06281294
37	0x3db1844f	0.08667814
38	0xbc9057d1	-0.01762
39	0x3f7a107b	0.976814
40	0xbefcb8d3	-0.4935976
41	0x3f24809f	0.6425876
42	0xbf3e8845	-0.7442668
43	0x3f678fed	0.9045399
44	0xbee5c91d	-0.4488
45	0x4014340a	2.3156762
46	0xbb14d012	-0.0022707027
47	0xbd02005f	-0.031738635
48	0x3d745347	0.059649732
49	0xbc9ec7b9	-0.019382345
50	0x3cd3a46b	0.025835237
51	0x3a43f06b	0.0007474485
52	0xbc121210	-0.008915439
53	0x3d8ec975	0.06972019
54	0xbba71b93	-0.0050997226
55	0xc0535ad8	-3.3024197
56	0x3f2e36fe	0.6805266
57	0x3dec7c60	0.1154716
58	0xbe1fb533	-0.15596466
59	0xbf021b1b	-0.5082261
60	0x3e671238	0.22565544
61	0xbeb2a6b7	-0.34892818
62	0x3ee88d18	0.45420146
63	0xc05fcf65	-3.4970334
64	0x3d5406b0	0.05176419
65	0x3b1b7b0e	0.002372447
66	0x3d21893b	0.039437514
67	0x3d242786	0.040076755
68	0xbd24b31e	-0.040209882
69	0xbb7bb085	-0.0038404774
70	0xbfd31d7e	-1.6493375
71	0xc046aea2	-3.1044087
72	0x3e6b6d3c	0.22990888
73	0x3ed564b1	0.41678384
74	0x3f22aaac	0.63541675
75	0xbe64fc1a	-0.22361794
76	0x3e7f6f12	0.24944714
77	0xbebf8a18	-0.37410045
78	0xbeb4f0ef	-0.35340068
79	0x3c041ac3	0.008063021
80	0x3ec90211	0.3925939
81	0x3e9d5a17	0.30732796
82	0xbfd6a79b	-1.6769899
83	0x3d537a5a	0.051630355
84	0x3d57747a	0.052601315
85	0xbb4b5274	-0.0031024488
86	0xbcd35880	-0.025799036
87	0x3ff89743	1.9421161
88	0xbf63cdf2	-0.8898612
89	0x3f814d73	1.0101761
90	0x3ee8f97f	0.4550285
91	0xbcb4a2ff	-0.022050379
92	0xbe2d9178	-0.16950023
93	0xbce2d16f	-0.027687756
94	0xbf051433	-0.51983947
95	0xbe861869	-0.26190498
96	0x3d707f1d	0.058714975
97	0x3dabdc26	0.08391599
98	0x3f7a3341	0.9773446
99	0x3e900f27	0.2813656
100	0xbca3cb75	-0.019994477
101	0xbd5ecdfc	-0.05439566
102	0x3f8eac0d	1.1146256
103	0xc0b027f5	-5.5048776
104	0xbf466bcb	-0.7750823
105	0xbeac2e09	-0.33628872
106	0xbe52a59b	-0.20570986
107	0x3e6c78b1	0.23092915
108	0x3d055f1c	0.032561406
109	0x3ded99ce	0.116016015
110	0xbef6d42d	-0.48208752
111	0x3eb1ed8b	0.34751543
112	0x3df58050	0.11987364
113	0xbe5e07af	-0.21682619
114	0x3eff018d	0.4980587
115	0x3e874fb6	0.26428002
116	0xbf1cc63a	-0.6123997
117	0x400a7c6e	2.1638446
118	0x3eba6950	0.36408472
119	0x405813ed	3.3762162
120	0xc0630dbc	-3.5477133
121	0x3f393f4c	0.7236221
122	0xbe39f0f4	-0.18158323
123	0xbd317a8a	-0.043329753
124	0x3e937ddc	0.2880696
125	0xbe4e33d0	-0.20136952
126	0x3de11c0c	0.10991678
127	0xbe13641a	-0.14393654
128	0xbe68f3b6	-0.22749218
129	0x3f36c6c6	0.71397054
130	0x3dd5d32d	0.10440669
131	0x3e802d41	0.25034526
132	0xbf354f25	-0.7082389
133	0x3ff3946d	1.9029671
134	0xbe8caf79	-0.27477625
135	0xbf2db46d	-0.6785343
136	0x3eea7d04	0.45798504
137	0x3f3effad	0.7460888
138	0xbef64e0f	-0.4810643
139	0x3f135995	0.57558566
140	0xbbd2e4c0	-0.0064359605
141	0x3d536b3a	0.05161593
142	0xbe45a1f6	-0.19300064
143	0x3de5a74d	0.11213551
144	0xbe3e0bbc	-0.18559164
145	0x3e3f2214	0.18665344
146	0xbe48b37f	-0.19599722
147	0xbf34fc2b	-0.7069728
148	0xbeb223b2	-0.34792858
149	0xbe371ffe	-0.17883298
150	0x3ef19c85	0.47189727
151	0xbef1bea5	-0.47215763
152	0xbfccf1bf	-1.6011275
153	0x3eb869d5	0.36018243
154	0xc01ba3fe	-2.4318843
155	0x3e7e77cd	0.24850388
156	0x3e4965f2	0.19667795
157	0xbf3c6f93	-0.7360775
158	0xbbe00b11	-0.0068372567
159	0xbe9615b7	-0.29313442
160	0xbe3fc03e	-0.18725678
161	0x3d0246ad	0.031805683
162	0xbc8179e0	-0.015805185
163	0x3f00050c	0.500077
164	0xbf1b28c2	-0.60609066
165	0x3e1f3304	0.15546805
166	0xbf0f2120	-0.5590992
167	0x3f18e0a7	0.5971779
168	0xc18b66a6	-17.425121
169	0x3f94f7bf	1.1638106
170	0xbe7ead14	-0.24870712
171	0x3f75f0c3	0.960705
172	0xc01274de	-2.288383
173	0xbfa0686f	-1.2531871
174	0xc085eec4	-4.185396
175	0xbf01690e	-0.50550926
176	0x3dc23db9	0.09484429
177	0xbe3a7a27	-0.1821066
178	0x3c46033f	0.012085735
179	0x3e15a58c	0.14613932
180	0xbeef47ee	-0.46734565
181	0x3cfd26af	0.030902235
182	0x3e730187	0.23731051
183	0x3fa93c22	1.3221476
184	0x3f49cbeb	0.7882678
185	0x406c6b57	3.6940515
186	0x4072250e	3.7835116
187	0x3c6834b0	0.014172718
188	0xbb587d98	-0.0033033844
189	0xbf92f62b	-1.1481375
190	0xbd9e859f	-0.0774033
191	0xbf07a710	-0.5298929
192	0xbe4501b4	-0.19238931
193	0x3ed14d27	0.40879175
194	0x3e2b9f88	0.16760075
195	0x3dc1b7d0	0.094588876
196	0x3f25cfda	0.6477028
197	0xbf3862cc	-0.7202575
198	0x3e9a0bce	0.3008713
199	0x3f9c054d	1.2189118
200	0xc095f8ad	-4.686606
201	0x3f2556d5	0.6458562
202	0xbc1b15cd	-0.009465647
203	0xbcd4b5ca	-0.02596559
204	0xbcee6196	-0.029099267
205	0xbc14c3fd	-0.00907993
206	0xbed18ee8	-0.4092934
207	0xbdb214f3	-0.08695402
208	0x3e9972d3	0.29970416
209	0x3eb70b26	0.35750693
210	0xbe90b9a5	-0.28266636
211	0xbdf2d139	-0.11856312
212	0x3f11dc9d	0.56977254
213	0xbd050abe	-0.032480948
214	0xbe8960e3	-0.2683173
215	0x3f2fed11	0.6872111
216	0xc0951e9b	-4.659986
217	0x3e0f904a	0.14019886
218	0xbd06dade	-0.03292357
219	0xb9f8b638	-0.0004743801
220	0x3c17b314	0.009259004
221	0xbcac858b	-0.021059772
222	0xbce76e5b	-0.028250864
223	0x3ca9dcf4	0.020735241
224	0xb9ef3fea	-0.00045633252
225	0xc007188f	-2.110874
226	0x3e9e07af	0.30865237
227	0x3d9036e7	0.07041722
228	0x3e772380	0.24134636
229	0xbe188c8f	-0.14897369
230	0xbe6503b1	-0.2236469
231	0xbe473fbb	-0.19457905
232	0x3d9f5eb9	0.07781739
233	0x3fe910ba	1.820823
234	0xbd0fb40f	-0.035083827
235	0xbd2724c7	-0.040806558
236	0xbcf9f781	-0.030513527
237	0xbbbc4d33	-0.0057465076
238	0xbc2d1cd9	-0.01056596
239	0xbc898b40	-0.016790032
240	0x3d036352	0.03207714
241	0x3c9f961a	0.019480754
242	0xbcf60045	-0.030029425
243	0x3f7c5134	0.98561406
244	0x3f086409	0.5327764
245	0xbfa4ac23	-1.2865032
246	0x3dcbae8b	0.09945401
247	0xbbade9a6	-0.005307394
248	0x3d428511	0.047490183
249	0x3fb7a732	1.4347899
250	0x3d4013a5	0.046893734
251	0x3bf0ecab	0.007352432
252	0x3d9371eb	0.071994625
253	0xbcc5183d	-0.02405941
254	0xbbe6cdf0	-0.0070435926
255	0xbd2bb513	-0.041920733

conv.0.kernels.8.bias f4 [4]
0	0xbf274241	-0.6533547
1	0x3faf7884	1.3708653
2	0xbe878425	-0.26468006
3	0xbf15a4a9	-0.58454376

conv.0.kernels.9.weight f4 [4, 1, 19, 19]
0	0xbcb4124a	-0.021981377
1	0xbbf61810	-0.0075101927
2	0x3c84e648	0.016223088
3	0xbc7c3ec3	-0.015395823
4	0xbd5c9735	-0.05385514
5	0xbd892d88	-0.066981375
6	0xbd6a6390	-0.057223856
7	0xc1335e5a	-11.210535
8	0x3e13a4d7	0.1441835
9	0x3f0d5f62	0.5522367
10	0xbfe524cd	-1.7901856
11	0x40d3fc5a	6.6245546
12	0x39c90759	0.00038343182
13	0x3ccafc6a	0.024778564
14	0x3cb56663	0.022143548
15	0x3c434277	0.011917702
16	0xbc5f2107	-0.013618714
17	0x3cca6d7f	0.024710415
18	0x3ceb43a0	0.02871877
19	0xbd952902	-0.07283212
20	0xbd761df5	-0.060087163
21	0x3ca96fe9	0.020683246
22	0xbccd82fe	-0.025086876
23	0xbd26a719	-0.0406867
24	0x3c072631	0.008248852
25	0x3da7ae85	0.08187584
26	0x400c844d	2.195575
27	0x3c90a286	0.017655622
28	0x3fec1769	1.8444644
29	0x3fd74ae7	1.6819733
30	0x3f822cb8	1.0169897
31	0xbc9b0b1e	-0.0189262
32	0xbca401bd	-0.02002036
33	0x3c378d74	0.011203159
34	0x3d67e547	0.05661514
35	0x3cea0b86	0.028569948
36	0x3d805e62	0.06268002
37	0xbc892dbd	-0.016745443
38	0x3cfc0da8	0.03076823
39	0x3d1c2171	0.03811783
40	0x3decca06	0.115619704
41	0xbd04ab8c	-0.032390162
42	0x3d01cbad	0.03168838
43	0x3d10536c	0.035235807
44	0xbf12f50e	-0.57405174
45	0x3ed80bab	0.42196402
46	0xbf203bfe	-0.6259154
47	0x3e7c7365	0.24653395
48	0x3fa1c665	1.263867
49	0x3eb606b8	0.35552
50	0xc0423562	-3.0345082
51	0xbc240887	-0.010011799
52	0xbc058bac	-0.008150976
53	0x3c3b4bac	0.011431616
54	0x3c969f31	0.018386455
55	0x3d8e1da3	0.069392465
56	0xbdd28b1b	-0.102804385
57	0xbd1c036a	-0.038089193
58	0xbb7e23a9	-0.003877858
59	0x3d1bccb4	0.038037017
60	0x3ce0e61a	0.027453471
61	0x3c9d0c5f	0.019170938
62	0x3cb3367a	0.021876562
63	0x3f76efa1	0.96459395
64	0xbee3aa4a	-0.44465858
65	0x3f194256	0.59866846
66	0xbf2807fb	-0.6563718
67	0x3f818d40	1.0121231
68	0xbf009891	-0.502328
69	0x400f0b63	2.23507
70	0x3cb882a7	0.022523237
71	0xbc6504ed	-0.013978225
72	0x3d357ae3	0.044306647
73	0x3d44caca	0.048044957
74	0x3bc189b0	0.005906306
75	0x3ce8f36c	0.028436385
76	0x3d1cd0a7	0.038284924
77	0xbc4a63eb	-0.012352924
78	0x3d58bfd5	0.05291732
79	0xbd14aaec	-0.036295816
80	0x3cd76f19	0.026298093
81	0xc0583608	-3.3782978
82	0x3f32bfa9	0.698237
83	0x3d67d645	0.056600828
84	0xbe3ca46c	-0.18422097
85	0xbf07b05b	-0.5300347
86	0x3e97cc5e	0.29648107
87	0xbea3d112	-0.31995445
88	0x3edf0de8	0.43565297
89	0xc05d834f	-3.4611394
90	0xbb4f25bb	-0.0031608182
91	0xbd834601	-0.064098366
92	0xbcd08f1c	-0.025458865
93	0xbcae16ca	-0.021251101
94	0x3c144d6b	0.009051661
95	0x3c1c93b7	0.009556702
96	0x3c84ab19	0.016194867
97	0x3c1d946b	0.009617905
98	0xbfd76d2b	-1.683019
99	0xc04b034f	-3.172077
100	0x3e8fcb12	0.28084618
101	0x3e8cc9e6	0.27497786
102	0x3f1d8912	0.6153728
103	0xbdf2b17f	-0.11850261
104	0x3e98a41c	0.29812706
105	0xbed57593	-0.41691265
106	0xbe87eece	-0.2654938
107	0xbd75e5cb	-0.0600336
108	0x3ebd8db6	0.3702218
109	0x3eb1240c	0.34597814
110	0xbfd8b9b5	-1.6931673
111	0x3bd5a407	0.0065197977
112	0xbdd0375d	-0.1016681
113	0xbc1203b2	-0.008912014
114	0x3bca9b8a	0.0061830925
115	0x3d85802c	0.065185875
116	0xbc664456	-0.0140543785
117	0x3ffaa188	1.9580545
118	0xbf5f2339	-0.8716312
119	0x3f8a559b	1.0807375
120	0x3edf0231	0.4355636
121	0xbaca7166	-0.0015445172
122	0xbe7a81b0	-0.24463534
123	0x3d1c4b5e	0.038157813
124	0xbf119ab5	-0.5687669
125	0xbe2e8c24	-0.17045647
126	0x3d615738	0.05501482
127	0xbb06c770	-0.0020565651
128	0x3f6a11b5	0.9143327
129	0x3e8794a2	0.26480585
130	0xbbd4392d	-0.0064765424
131	0xbd33f207	-0.043931987
132	0xbd0d1909	-0.034447704
133	0xc0ad9cbb	-5.425382
134	0x3f8e65ea	1.1124852
135	0xc0afb71c	-5.491102
136	0xbf5507ca	-0.8321501
137	0xbeef58b9	-0.46747378
138	0xbe307853	-0.172334
139	0x3e3cc04c	0.1843273
140	0xbce02d32	-0.0273653
141	0x3e1f7c34	0.15574723
142	0xbf187d75	-0.5956643
143	0x3eb05805	0.34442154
144	0x3dc123db	0.09430667
145	0xbe83a212	-0.25709587
146	0x3eeee82b	0.46661505
147	0x3e9e41e4	0.30909646
148	0xbf0ed5b5	-0.5579484
149	0x400a92ab	2.165202
150	0x3eace5bc	0.33769023
151	0x4091f643	4.5613112
152	0xbefde195	-0.49586168
153	0x40525fa7	3.2870882
154	0xc06579ef	-3.5855672
155	0x3f4bdf4c	0.796376
156	0xbd9298d9	-0.071580596
157	0xbdae98fc	-0.08525273
158	0x3e9cf551	0.30655912
159	0xbdc5c0d1	-0.096559174
160	0x3e6cd643	0.2312861
161	0xbd240009	-0.040039096
162	0xbe920a7d	-0.28523627
163	0x3f34dbd4	0.7064793
164	0x3e029669	0.1275269
165	0x3e0b3846	0.13595685
166	0xbf32a277	-0.6977915
167	0x3ff57816	1.9177272
168	0xbeaa8204	-0.3330232
169	0xbf3d9c6a	-0.74066794
170	0x3d51614d	0.051118184
171	0xbfda1ec4	-1.7040639
172	0x3ed67021	0.41882423
173	0x3f50e449	0.81598336
174	0xbedc1979	-0.42988184
175	0x3f251867	0.6449036
176	0x3d075c80	0.0330472
177	0x3d5c046b	0.05371515
178	0xbe01630f	-0.12635444
179	0x3e07f0e1	0.13275482
180	0xbe2b7fd6	-0.16747984
181	0x3e4b4630	0.19850993
182	0xbe6494b0	-0.22322345
183	0xbf3f9c24	-0.74847627
184	0xbeb9e6a1	-0.36308768
185	0xbe3df250	-0.18549466
186	0x3ecb999b	0.3976563
187	0xbf083606	-0.53207433
188	0xbfcdeeed	-1.6088539
189	0xbf80acbe	-1.0052717
190	0xc11d280c	-9.822277
191	0x3eb907af	0.36138675
192	0xc016b411	-2.3547404
193	0x3e89e689	0.26933697
194	0x3d7677a3	0.06017269
195	0xbf316c4d	-0.6930588
196	0xbb368027	-0.002784738
197	0xbe89d983	-0.2692376
198	0xbe140e18	-0.14458501
199	0x3df9ed67	0.12203484
200	0xbd1e16a5	-0.038595814
201	0x3ef3c8fe	0.47614282
202	0xbf1c10e3	-0.6096327
203	0x3e62933c	0.22126478
204	0xbf0d6853	-0.5523731
205	0x3f2512b6	0.64481676
206	0xc18b6625	-17.424875
207	0x3f9b8457	1.2149762
208	0xc04af8ad	-3.171428
209	0xc0b57f3e	-5.6717825
210	0xbe4fbda8	-0.20287192
211	0x3f77773b	0.96666306
212	0xc013e424	-2.3107996
213	0xbfa473c7	-1.2847832
214	0xc084fd06	-4.1558867
215	0xbf14d0d1	-0.5813113
216	0x3d375cb5	0.044766147
217	0xbe5572d3	-0.20844583
218	0x3d947374	0.072485834
219	0x3de9e2d1	0.11420215
220	0xbef88237	-0.48536846
221	0x3d82e3ae	0.06391083
222	0x3e4f901f	0.20269822
223	0x3faa02b0	1.328207
224	0x3f563de3	0.8368818
225	0x406e449d	3.7229378
226	0x407460dd	3.818412
227	0x3fef1d2b	1.8680776
228	0x3c6114af	0.0137378415
229	0x3c773b80	0.0150898695
230	0xbcafd6e8	-0.02146478
231	0xbf8769c1	-1.0579149
232	0xbd9c0228	-0.07617599
233	0xbef22708	-0.47295403
234	0xbe0989f2	-0.13431528
235	0x3ec0bfde	0.37646383
236	0x3d821c53	0.06353059
237	0xbc081dc1	-0.008307875
238	0x3f272a65	0.65299064
239	0xbf311b9f	-0.6918277
240	0x3e99a8c4	0.3001157
241	0x3f99e70f	1.2023638
242	0xc095a0a8	-4.6758614
243	0x3f213783	0.6297533
244	0x3c9856ee	0.018596139
245	0xba13b595	-0.0005634663
246	0xbd1e5f6a	-0.038665213
247	0xbdb3da82	-0.087819114
248	0x3cde6b21	0.027150692
249	0xbcaa60a8	-0.020798042
250	0xbef1f519	-0.47257307
251	0xbd609feb	-0.05484001
252	0x3ebad4d7	0.3649051
253	0x3eb10671	0.34575227
254	0xbe8714a8	-0.26382947
255	0xbe38d5c9	-0.18050303

conv.0.kernels.9.bias f4 [4]
0	0xbf274241	-0.6533547
1	0x3faf7884	1.3708653
2	0xbe878425	-0.26468006
3	0xbf15a4a9	-0.58454376

conv.2.kernels.0.weight f4 [1, 4, 1, 1]
0	0xbfd7b0f1	-1.6850873
1	0x3f4aaa1d	0.7916582
2	0xc03401d1	-2.8126109
3	0xbda191af	-0.07889115
